50000 50000
<class 'numpy.ndarray'> <class 'torch.Tensor'>
50000 50000
<class 'numpy.ndarray'> <class 'list'>
CIFAR10
RANDOM SEED 4666
EntropySampling
EfficientNet(
  (features): Sequential(
    (0): ConvNormActivation(
      (0): Conv2d(3, 64, kernel_size=(3, 3), stride=(2, 2), padding=(1, 1), bias=False)
      (1): BatchNorm2d(64, eps=0.001, momentum=0.01, affine=True, track_running_stats=True)
      (2): SiLU(inplace=True)
    )
    (1): Sequential(
      (0): MBConv(
        (block): Sequential(
          (0): ConvNormActivation(
            (0): Conv2d(64, 64, kernel_size=(3, 3), stride=(1, 1), padding=(1, 1), groups=64, bias=False)
            (1): BatchNorm2d(64, eps=0.001, momentum=0.01, affine=True, track_running_stats=True)
            (2): SiLU(inplace=True)
          )
          (1): SqueezeExcitation(
            (avgpool): AdaptiveAvgPool2d(output_size=1)
            (fc1): Conv2d(64, 16, kernel_size=(1, 1), stride=(1, 1))
            (fc2): Conv2d(16, 64, kernel_size=(1, 1), stride=(1, 1))
            (activation): SiLU(inplace=True)
            (scale_activation): Sigmoid()
          )
          (2): ConvNormActivation(
            (0): Conv2d(64, 32, kernel_size=(1, 1), stride=(1, 1), bias=False)
            (1): BatchNorm2d(32, eps=0.001, momentum=0.01, affine=True, track_running_stats=True)
          )
        )
        (stochastic_depth): StochasticDepth(p=0.0, mode=row)
      )
      (1): MBConv(
        (block): Sequential(
          (0): ConvNormActivation(
            (0): Conv2d(32, 32, kernel_size=(3, 3), stride=(1, 1), padding=(1, 1), groups=32, bias=False)
            (1): BatchNorm2d(32, eps=0.001, momentum=0.01, affine=True, track_running_stats=True)
            (2): SiLU(inplace=True)
          )
          (1): SqueezeExcitation(
            (avgpool): AdaptiveAvgPool2d(output_size=1)
            (fc1): Conv2d(32, 8, kernel_size=(1, 1), stride=(1, 1))
            (fc2): Conv2d(8, 32, kernel_size=(1, 1), stride=(1, 1))
            (activation): SiLU(inplace=True)
            (scale_activation): Sigmoid()
          )
          (2): ConvNormActivation(
            (0): Conv2d(32, 32, kernel_size=(1, 1), stride=(1, 1), bias=False)
            (1): BatchNorm2d(32, eps=0.001, momentum=0.01, affine=True, track_running_stats=True)
          )
        )
        (stochastic_depth): StochasticDepth(p=0.0036363636363636364, mode=row)
      )
      (2): MBConv(
        (block): Sequential(
          (0): ConvNormActivation(
            (0): Conv2d(32, 32, kernel_size=(3, 3), stride=(1, 1), padding=(1, 1), groups=32, bias=False)
            (1): BatchNorm2d(32, eps=0.001, momentum=0.01, affine=True, track_running_stats=True)
            (2): SiLU(inplace=True)
          )
          (1): SqueezeExcitation(
            (avgpool): AdaptiveAvgPool2d(output_size=1)
            (fc1): Conv2d(32, 8, kernel_size=(1, 1), stride=(1, 1))
            (fc2): Conv2d(8, 32, kernel_size=(1, 1), stride=(1, 1))
            (activation): SiLU(inplace=True)
            (scale_activation): Sigmoid()
          )
          (2): ConvNormActivation(
            (0): Conv2d(32, 32, kernel_size=(1, 1), stride=(1, 1), bias=False)
            (1): BatchNorm2d(32, eps=0.001, momentum=0.01, affine=True, track_running_stats=True)
          )
        )
        (stochastic_depth): StochasticDepth(p=0.007272727272727273, mode=row)
      )
      (3): MBConv(
        (block): Sequential(
          (0): ConvNormActivation(
            (0): Conv2d(32, 32, kernel_size=(3, 3), stride=(1, 1), padding=(1, 1), groups=32, bias=False)
            (1): BatchNorm2d(32, eps=0.001, momentum=0.01, affine=True, track_running_stats=True)
            (2): SiLU(inplace=True)
          )
          (1): SqueezeExcitation(
            (avgpool): AdaptiveAvgPool2d(output_size=1)
            (fc1): Conv2d(32, 8, kernel_size=(1, 1), stride=(1, 1))
            (fc2): Conv2d(8, 32, kernel_size=(1, 1), stride=(1, 1))
            (activation): SiLU(inplace=True)
            (scale_activation): Sigmoid()
          )
          (2): ConvNormActivation(
            (0): Conv2d(32, 32, kernel_size=(1, 1), stride=(1, 1), bias=False)
            (1): BatchNorm2d(32, eps=0.001, momentum=0.01, affine=True, track_running_stats=True)
          )
        )
        (stochastic_depth): StochasticDepth(p=0.01090909090909091, mode=row)
      )
    )
    (2): Sequential(
      (0): MBConv(
        (block): Sequential(
          (0): ConvNormActivation(
            (0): Conv2d(32, 192, kernel_size=(1, 1), stride=(1, 1), bias=False)
            (1): BatchNorm2d(192, eps=0.001, momentum=0.01, affine=True, track_running_stats=True)
            (2): SiLU(inplace=True)
          )
          (1): ConvNormActivation(
            (0): Conv2d(192, 192, kernel_size=(3, 3), stride=(2, 2), padding=(1, 1), groups=192, bias=False)
            (1): BatchNorm2d(192, eps=0.001, momentum=0.01, affine=True, track_running_stats=True)
            (2): SiLU(inplace=True)
          )
          (2): SqueezeExcitation(
            (avgpool): AdaptiveAvgPool2d(output_size=1)
            (fc1): Conv2d(192, 8, kernel_size=(1, 1), stride=(1, 1))
            (fc2): Conv2d(8, 192, kernel_size=(1, 1), stride=(1, 1))
            (activation): SiLU(inplace=True)
            (scale_activation): Sigmoid()
          )
          (3): ConvNormActivation(
            (0): Conv2d(192, 48, kernel_size=(1, 1), stride=(1, 1), bias=False)
            (1): BatchNorm2d(48, eps=0.001, momentum=0.01, affine=True, track_running_stats=True)
          )
        )
        (stochastic_depth): StochasticDepth(p=0.014545454545454545, mode=row)
      )
      (1): MBConv(
        (block): Sequential(
          (0): ConvNormActivation(
            (0): Conv2d(48, 288, kernel_size=(1, 1), stride=(1, 1), bias=False)
            (1): BatchNorm2d(288, eps=0.001, momentum=0.01, affine=True, track_running_stats=True)
            (2): SiLU(inplace=True)
          )
          (1): ConvNormActivation(
            (0): Conv2d(288, 288, kernel_size=(3, 3), stride=(1, 1), padding=(1, 1), groups=288, bias=False)
            (1): BatchNorm2d(288, eps=0.001, momentum=0.01, affine=True, track_running_stats=True)
            (2): SiLU(inplace=True)
          )
          (2): SqueezeExcitation(
            (avgpool): AdaptiveAvgPool2d(output_size=1)
            (fc1): Conv2d(288, 12, kernel_size=(1, 1), stride=(1, 1))
            (fc2): Conv2d(12, 288, kernel_size=(1, 1), stride=(1, 1))
            (activation): SiLU(inplace=True)
            (scale_activation): Sigmoid()
          )
          (3): ConvNormActivation(
            (0): Conv2d(288, 48, kernel_size=(1, 1), stride=(1, 1), bias=False)
            (1): BatchNorm2d(48, eps=0.001, momentum=0.01, affine=True, track_running_stats=True)
          )
        )
        (stochastic_depth): StochasticDepth(p=0.01818181818181818, mode=row)
      )
      (2): MBConv(
        (block): Sequential(
          (0): ConvNormActivation(
            (0): Conv2d(48, 288, kernel_size=(1, 1), stride=(1, 1), bias=False)
            (1): BatchNorm2d(288, eps=0.001, momentum=0.01, affine=True, track_running_stats=True)
            (2): SiLU(inplace=True)
          )
          (1): ConvNormActivation(
            (0): Conv2d(288, 288, kernel_size=(3, 3), stride=(1, 1), padding=(1, 1), groups=288, bias=False)
            (1): BatchNorm2d(288, eps=0.001, momentum=0.01, affine=True, track_running_stats=True)
            (2): SiLU(inplace=True)
          )
          (2): SqueezeExcitation(
            (avgpool): AdaptiveAvgPool2d(output_size=1)
            (fc1): Conv2d(288, 12, kernel_size=(1, 1), stride=(1, 1))
            (fc2): Conv2d(12, 288, kernel_size=(1, 1), stride=(1, 1))
            (activation): SiLU(inplace=True)
            (scale_activation): Sigmoid()
          )
          (3): ConvNormActivation(
            (0): Conv2d(288, 48, kernel_size=(1, 1), stride=(1, 1), bias=False)
            (1): BatchNorm2d(48, eps=0.001, momentum=0.01, affine=True, track_running_stats=True)
          )
        )
        (stochastic_depth): StochasticDepth(p=0.02181818181818182, mode=row)
      )
      (3): MBConv(
        (block): Sequential(
          (0): ConvNormActivation(
            (0): Conv2d(48, 288, kernel_size=(1, 1), stride=(1, 1), bias=False)
            (1): BatchNorm2d(288, eps=0.001, momentum=0.01, affine=True, track_running_stats=True)
            (2): SiLU(inplace=True)
          )
          (1): ConvNormActivation(
            (0): Conv2d(288, 288, kernel_size=(3, 3), stride=(1, 1), padding=(1, 1), groups=288, bias=False)
            (1): BatchNorm2d(288, eps=0.001, momentum=0.01, affine=True, track_running_stats=True)
            (2): SiLU(inplace=True)
          )
          (2): SqueezeExcitation(
            (avgpool): AdaptiveAvgPool2d(output_size=1)
            (fc1): Conv2d(288, 12, kernel_size=(1, 1), stride=(1, 1))
            (fc2): Conv2d(12, 288, kernel_size=(1, 1), stride=(1, 1))
            (activation): SiLU(inplace=True)
            (scale_activation): Sigmoid()
          )
          (3): ConvNormActivation(
            (0): Conv2d(288, 48, kernel_size=(1, 1), stride=(1, 1), bias=False)
            (1): BatchNorm2d(48, eps=0.001, momentum=0.01, affine=True, track_running_stats=True)
          )
        )
        (stochastic_depth): StochasticDepth(p=0.025454545454545455, mode=row)
      )
      (4): MBConv(
        (block): Sequential(
          (0): ConvNormActivation(
            (0): Conv2d(48, 288, kernel_size=(1, 1), stride=(1, 1), bias=False)
            (1): BatchNorm2d(288, eps=0.001, momentum=0.01, affine=True, track_running_stats=True)
            (2): SiLU(inplace=True)
          )
          (1): ConvNormActivation(
            (0): Conv2d(288, 288, kernel_size=(3, 3), stride=(1, 1), padding=(1, 1), groups=288, bias=False)
            (1): BatchNorm2d(288, eps=0.001, momentum=0.01, affine=True, track_running_stats=True)
            (2): SiLU(inplace=True)
          )
          (2): SqueezeExcitation(
            (avgpool): AdaptiveAvgPool2d(output_size=1)
            (fc1): Conv2d(288, 12, kernel_size=(1, 1), stride=(1, 1))
            (fc2): Conv2d(12, 288, kernel_size=(1, 1), stride=(1, 1))
            (activation): SiLU(inplace=True)
            (scale_activation): Sigmoid()
          )
          (3): ConvNormActivation(
            (0): Conv2d(288, 48, kernel_size=(1, 1), stride=(1, 1), bias=False)
            (1): BatchNorm2d(48, eps=0.001, momentum=0.01, affine=True, track_running_stats=True)
          )
        )
        (stochastic_depth): StochasticDepth(p=0.02909090909090909, mode=row)
      )
      (5): MBConv(
        (block): Sequential(
          (0): ConvNormActivation(
            (0): Conv2d(48, 288, kernel_size=(1, 1), stride=(1, 1), bias=False)
            (1): BatchNorm2d(288, eps=0.001, momentum=0.01, affine=True, track_running_stats=True)
            (2): SiLU(inplace=True)
          )
          (1): ConvNormActivation(
            (0): Conv2d(288, 288, kernel_size=(3, 3), stride=(1, 1), padding=(1, 1), groups=288, bias=False)
            (1): BatchNorm2d(288, eps=0.001, momentum=0.01, affine=True, track_running_stats=True)
            (2): SiLU(inplace=True)
          )
          (2): SqueezeExcitation(
            (avgpool): AdaptiveAvgPool2d(output_size=1)
            (fc1): Conv2d(288, 12, kernel_size=(1, 1), stride=(1, 1))
            (fc2): Conv2d(12, 288, kernel_size=(1, 1), stride=(1, 1))
            (activation): SiLU(inplace=True)
            (scale_activation): Sigmoid()
          )
          (3): ConvNormActivation(
            (0): Conv2d(288, 48, kernel_size=(1, 1), stride=(1, 1), bias=False)
            (1): BatchNorm2d(48, eps=0.001, momentum=0.01, affine=True, track_running_stats=True)
          )
        )
        (stochastic_depth): StochasticDepth(p=0.03272727272727273, mode=row)
      )
      (6): MBConv(
        (block): Sequential(
          (0): ConvNormActivation(
            (0): Conv2d(48, 288, kernel_size=(1, 1), stride=(1, 1), bias=False)
            (1): BatchNorm2d(288, eps=0.001, momentum=0.01, affine=True, track_running_stats=True)
            (2): SiLU(inplace=True)
          )
          (1): ConvNormActivation(
            (0): Conv2d(288, 288, kernel_size=(3, 3), stride=(1, 1), padding=(1, 1), groups=288, bias=False)
            (1): BatchNorm2d(288, eps=0.001, momentum=0.01, affine=True, track_running_stats=True)
            (2): SiLU(inplace=True)
          )
          (2): SqueezeExcitation(
            (avgpool): AdaptiveAvgPool2d(output_size=1)
            (fc1): Conv2d(288, 12, kernel_size=(1, 1), stride=(1, 1))
            (fc2): Conv2d(12, 288, kernel_size=(1, 1), stride=(1, 1))
            (activation): SiLU(inplace=True)
            (scale_activation): Sigmoid()
          )
          (3): ConvNormActivation(
            (0): Conv2d(288, 48, kernel_size=(1, 1), stride=(1, 1), bias=False)
            (1): BatchNorm2d(48, eps=0.001, momentum=0.01, affine=True, track_running_stats=True)
          )
        )
        (stochastic_depth): StochasticDepth(p=0.03636363636363636, mode=row)
      )
    )
    (3): Sequential(
      (0): MBConv(
        (block): Sequential(
          (0): ConvNormActivation(
            (0): Conv2d(48, 288, kernel_size=(1, 1), stride=(1, 1), bias=False)
            (1): BatchNorm2d(288, eps=0.001, momentum=0.01, affine=True, track_running_stats=True)
            (2): SiLU(inplace=True)
          )
          (1): ConvNormActivation(
            (0): Conv2d(288, 288, kernel_size=(5, 5), stride=(2, 2), padding=(2, 2), groups=288, bias=False)
            (1): BatchNorm2d(288, eps=0.001, momentum=0.01, affine=True, track_running_stats=True)
            (2): SiLU(inplace=True)
          )
          (2): SqueezeExcitation(
            (avgpool): AdaptiveAvgPool2d(output_size=1)
            (fc1): Conv2d(288, 12, kernel_size=(1, 1), stride=(1, 1))
            (fc2): Conv2d(12, 288, kernel_size=(1, 1), stride=(1, 1))
            (activation): SiLU(inplace=True)
            (scale_activation): Sigmoid()
          )
          (3): ConvNormActivation(
            (0): Conv2d(288, 80, kernel_size=(1, 1), stride=(1, 1), bias=False)
            (1): BatchNorm2d(80, eps=0.001, momentum=0.01, affine=True, track_running_stats=True)
          )
        )
        (stochastic_depth): StochasticDepth(p=0.04, mode=row)
      )
      (1): MBConv(
        (block): Sequential(
          (0): ConvNormActivation(
            (0): Conv2d(80, 480, kernel_size=(1, 1), stride=(1, 1), bias=False)
            (1): BatchNorm2d(480, eps=0.001, momentum=0.01, affine=True, track_running_stats=True)
            (2): SiLU(inplace=True)
          )
          (1): ConvNormActivation(
            (0): Conv2d(480, 480, kernel_size=(5, 5), stride=(1, 1), padding=(2, 2), groups=480, bias=False)
            (1): BatchNorm2d(480, eps=0.001, momentum=0.01, affine=True, track_running_stats=True)
            (2): SiLU(inplace=True)
          )
          (2): SqueezeExcitation(
            (avgpool): AdaptiveAvgPool2d(output_size=1)
            (fc1): Conv2d(480, 20, kernel_size=(1, 1), stride=(1, 1))
            (fc2): Conv2d(20, 480, kernel_size=(1, 1), stride=(1, 1))
            (activation): SiLU(inplace=True)
            (scale_activation): Sigmoid()
          )
          (3): ConvNormActivation(
            (0): Conv2d(480, 80, kernel_size=(1, 1), stride=(1, 1), bias=False)
            (1): BatchNorm2d(80, eps=0.001, momentum=0.01, affine=True, track_running_stats=True)
          )
        )
        (stochastic_depth): StochasticDepth(p=0.04363636363636364, mode=row)
      )
      (2): MBConv(
        (block): Sequential(
          (0): ConvNormActivation(
            (0): Conv2d(80, 480, kernel_size=(1, 1), stride=(1, 1), bias=False)
            (1): BatchNorm2d(480, eps=0.001, momentum=0.01, affine=True, track_running_stats=True)
            (2): SiLU(inplace=True)
          )
          (1): ConvNormActivation(
            (0): Conv2d(480, 480, kernel_size=(5, 5), stride=(1, 1), padding=(2, 2), groups=480, bias=False)
            (1): BatchNorm2d(480, eps=0.001, momentum=0.01, affine=True, track_running_stats=True)
            (2): SiLU(inplace=True)
          )
          (2): SqueezeExcitation(
            (avgpool): AdaptiveAvgPool2d(output_size=1)
            (fc1): Conv2d(480, 20, kernel_size=(1, 1), stride=(1, 1))
            (fc2): Conv2d(20, 480, kernel_size=(1, 1), stride=(1, 1))
            (activation): SiLU(inplace=True)
            (scale_activation): Sigmoid()
          )
          (3): ConvNormActivation(
            (0): Conv2d(480, 80, kernel_size=(1, 1), stride=(1, 1), bias=False)
            (1): BatchNorm2d(80, eps=0.001, momentum=0.01, affine=True, track_running_stats=True)
          )
        )
        (stochastic_depth): StochasticDepth(p=0.04727272727272727, mode=row)
      )
      (3): MBConv(
        (block): Sequential(
          (0): ConvNormActivation(
            (0): Conv2d(80, 480, kernel_size=(1, 1), stride=(1, 1), bias=False)
            (1): BatchNorm2d(480, eps=0.001, momentum=0.01, affine=True, track_running_stats=True)
            (2): SiLU(inplace=True)
          )
          (1): ConvNormActivation(
            (0): Conv2d(480, 480, kernel_size=(5, 5), stride=(1, 1), padding=(2, 2), groups=480, bias=False)
            (1): BatchNorm2d(480, eps=0.001, momentum=0.01, affine=True, track_running_stats=True)
            (2): SiLU(inplace=True)
          )
          (2): SqueezeExcitation(
            (avgpool): AdaptiveAvgPool2d(output_size=1)
            (fc1): Conv2d(480, 20, kernel_size=(1, 1), stride=(1, 1))
            (fc2): Conv2d(20, 480, kernel_size=(1, 1), stride=(1, 1))
            (activation): SiLU(inplace=True)
            (scale_activation): Sigmoid()
          )
          (3): ConvNormActivation(
            (0): Conv2d(480, 80, kernel_size=(1, 1), stride=(1, 1), bias=False)
            (1): BatchNorm2d(80, eps=0.001, momentum=0.01, affine=True, track_running_stats=True)
          )
        )
        (stochastic_depth): StochasticDepth(p=0.05090909090909091, mode=row)
      )
      (4): MBConv(
        (block): Sequential(
          (0): ConvNormActivation(
            (0): Conv2d(80, 480, kernel_size=(1, 1), stride=(1, 1), bias=False)
            (1): BatchNorm2d(480, eps=0.001, momentum=0.01, affine=True, track_running_stats=True)
            (2): SiLU(inplace=True)
          )
          (1): ConvNormActivation(
            (0): Conv2d(480, 480, kernel_size=(5, 5), stride=(1, 1), padding=(2, 2), groups=480, bias=False)
            (1): BatchNorm2d(480, eps=0.001, momentum=0.01, affine=True, track_running_stats=True)
            (2): SiLU(inplace=True)
          )
          (2): SqueezeExcitation(
            (avgpool): AdaptiveAvgPool2d(output_size=1)
            (fc1): Conv2d(480, 20, kernel_size=(1, 1), stride=(1, 1))
            (fc2): Conv2d(20, 480, kernel_size=(1, 1), stride=(1, 1))
            (activation): SiLU(inplace=True)
            (scale_activation): Sigmoid()
          )
          (3): ConvNormActivation(
            (0): Conv2d(480, 80, kernel_size=(1, 1), stride=(1, 1), bias=False)
            (1): BatchNorm2d(80, eps=0.001, momentum=0.01, affine=True, track_running_stats=True)
          )
        )
        (stochastic_depth): StochasticDepth(p=0.05454545454545454, mode=row)
      )
      (5): MBConv(
        (block): Sequential(
          (0): ConvNormActivation(
            (0): Conv2d(80, 480, kernel_size=(1, 1), stride=(1, 1), bias=False)
            (1): BatchNorm2d(480, eps=0.001, momentum=0.01, affine=True, track_running_stats=True)
            (2): SiLU(inplace=True)
          )
          (1): ConvNormActivation(
            (0): Conv2d(480, 480, kernel_size=(5, 5), stride=(1, 1), padding=(2, 2), groups=480, bias=False)
            (1): BatchNorm2d(480, eps=0.001, momentum=0.01, affine=True, track_running_stats=True)
            (2): SiLU(inplace=True)
          )
          (2): SqueezeExcitation(
            (avgpool): AdaptiveAvgPool2d(output_size=1)
            (fc1): Conv2d(480, 20, kernel_size=(1, 1), stride=(1, 1))
            (fc2): Conv2d(20, 480, kernel_size=(1, 1), stride=(1, 1))
            (activation): SiLU(inplace=True)
            (scale_activation): Sigmoid()
          )
          (3): ConvNormActivation(
            (0): Conv2d(480, 80, kernel_size=(1, 1), stride=(1, 1), bias=False)
            (1): BatchNorm2d(80, eps=0.001, momentum=0.01, affine=True, track_running_stats=True)
          )
        )
        (stochastic_depth): StochasticDepth(p=0.05818181818181818, mode=row)
      )
      (6): MBConv(
        (block): Sequential(
          (0): ConvNormActivation(
            (0): Conv2d(80, 480, kernel_size=(1, 1), stride=(1, 1), bias=False)
            (1): BatchNorm2d(480, eps=0.001, momentum=0.01, affine=True, track_running_stats=True)
            (2): SiLU(inplace=True)
          )
          (1): ConvNormActivation(
            (0): Conv2d(480, 480, kernel_size=(5, 5), stride=(1, 1), padding=(2, 2), groups=480, bias=False)
            (1): BatchNorm2d(480, eps=0.001, momentum=0.01, affine=True, track_running_stats=True)
            (2): SiLU(inplace=True)
          )
          (2): SqueezeExcitation(
            (avgpool): AdaptiveAvgPool2d(output_size=1)
            (fc1): Conv2d(480, 20, kernel_size=(1, 1), stride=(1, 1))
            (fc2): Conv2d(20, 480, kernel_size=(1, 1), stride=(1, 1))
            (activation): SiLU(inplace=True)
            (scale_activation): Sigmoid()
          )
          (3): ConvNormActivation(
            (0): Conv2d(480, 80, kernel_size=(1, 1), stride=(1, 1), bias=False)
            (1): BatchNorm2d(80, eps=0.001, momentum=0.01, affine=True, track_running_stats=True)
          )
        )
        (stochastic_depth): StochasticDepth(p=0.06181818181818183, mode=row)
      )
    )
    (4): Sequential(
      (0): MBConv(
        (block): Sequential(
          (0): ConvNormActivation(
            (0): Conv2d(80, 480, kernel_size=(1, 1), stride=(1, 1), bias=False)
            (1): BatchNorm2d(480, eps=0.001, momentum=0.01, affine=True, track_running_stats=True)
            (2): SiLU(inplace=True)
          )
          (1): ConvNormActivation(
            (0): Conv2d(480, 480, kernel_size=(3, 3), stride=(2, 2), padding=(1, 1), groups=480, bias=False)
            (1): BatchNorm2d(480, eps=0.001, momentum=0.01, affine=True, track_running_stats=True)
            (2): SiLU(inplace=True)
          )
          (2): SqueezeExcitation(
            (avgpool): AdaptiveAvgPool2d(output_size=1)
            (fc1): Conv2d(480, 20, kernel_size=(1, 1), stride=(1, 1))
            (fc2): Conv2d(20, 480, kernel_size=(1, 1), stride=(1, 1))
            (activation): SiLU(inplace=True)
            (scale_activation): Sigmoid()
          )
          (3): ConvNormActivation(
            (0): Conv2d(480, 160, kernel_size=(1, 1), stride=(1, 1), bias=False)
            (1): BatchNorm2d(160, eps=0.001, momentum=0.01, affine=True, track_running_stats=True)
          )
        )
        (stochastic_depth): StochasticDepth(p=0.06545454545454546, mode=row)
      )
      (1): MBConv(
        (block): Sequential(
          (0): ConvNormActivation(
            (0): Conv2d(160, 960, kernel_size=(1, 1), stride=(1, 1), bias=False)
            (1): BatchNorm2d(960, eps=0.001, momentum=0.01, affine=True, track_running_stats=True)
            (2): SiLU(inplace=True)
          )
          (1): ConvNormActivation(
            (0): Conv2d(960, 960, kernel_size=(3, 3), stride=(1, 1), padding=(1, 1), groups=960, bias=False)
            (1): BatchNorm2d(960, eps=0.001, momentum=0.01, affine=True, track_running_stats=True)
            (2): SiLU(inplace=True)
          )
          (2): SqueezeExcitation(
            (avgpool): AdaptiveAvgPool2d(output_size=1)
            (fc1): Conv2d(960, 40, kernel_size=(1, 1), stride=(1, 1))
            (fc2): Conv2d(40, 960, kernel_size=(1, 1), stride=(1, 1))
            (activation): SiLU(inplace=True)
            (scale_activation): Sigmoid()
          )
          (3): ConvNormActivation(
            (0): Conv2d(960, 160, kernel_size=(1, 1), stride=(1, 1), bias=False)
            (1): BatchNorm2d(160, eps=0.001, momentum=0.01, affine=True, track_running_stats=True)
          )
        )
        (stochastic_depth): StochasticDepth(p=0.06909090909090909, mode=row)
      )
      (2): MBConv(
        (block): Sequential(
          (0): ConvNormActivation(
            (0): Conv2d(160, 960, kernel_size=(1, 1), stride=(1, 1), bias=False)
            (1): BatchNorm2d(960, eps=0.001, momentum=0.01, affine=True, track_running_stats=True)
            (2): SiLU(inplace=True)
          )
          (1): ConvNormActivation(
            (0): Conv2d(960, 960, kernel_size=(3, 3), stride=(1, 1), padding=(1, 1), groups=960, bias=False)
            (1): BatchNorm2d(960, eps=0.001, momentum=0.01, affine=True, track_running_stats=True)
            (2): SiLU(inplace=True)
          )
          (2): SqueezeExcitation(
            (avgpool): AdaptiveAvgPool2d(output_size=1)
            (fc1): Conv2d(960, 40, kernel_size=(1, 1), stride=(1, 1))
            (fc2): Conv2d(40, 960, kernel_size=(1, 1), stride=(1, 1))
            (activation): SiLU(inplace=True)
            (scale_activation): Sigmoid()
          )
          (3): ConvNormActivation(
            (0): Conv2d(960, 160, kernel_size=(1, 1), stride=(1, 1), bias=False)
            (1): BatchNorm2d(160, eps=0.001, momentum=0.01, affine=True, track_running_stats=True)
          )
        )
        (stochastic_depth): StochasticDepth(p=0.07272727272727272, mode=row)
      )
      (3): MBConv(
        (block): Sequential(
          (0): ConvNormActivation(
            (0): Conv2d(160, 960, kernel_size=(1, 1), stride=(1, 1), bias=False)
            (1): BatchNorm2d(960, eps=0.001, momentum=0.01, affine=True, track_running_stats=True)
            (2): SiLU(inplace=True)
          )
          (1): ConvNormActivation(
            (0): Conv2d(960, 960, kernel_size=(3, 3), stride=(1, 1), padding=(1, 1), groups=960, bias=False)
            (1): BatchNorm2d(960, eps=0.001, momentum=0.01, affine=True, track_running_stats=True)
            (2): SiLU(inplace=True)
          )
          (2): SqueezeExcitation(
            (avgpool): AdaptiveAvgPool2d(output_size=1)
            (fc1): Conv2d(960, 40, kernel_size=(1, 1), stride=(1, 1))
            (fc2): Conv2d(40, 960, kernel_size=(1, 1), stride=(1, 1))
            (activation): SiLU(inplace=True)
            (scale_activation): Sigmoid()
          )
          (3): ConvNormActivation(
            (0): Conv2d(960, 160, kernel_size=(1, 1), stride=(1, 1), bias=False)
            (1): BatchNorm2d(160, eps=0.001, momentum=0.01, affine=True, track_running_stats=True)
          )
        )
        (stochastic_depth): StochasticDepth(p=0.07636363636363637, mode=row)
      )
      (4): MBConv(
        (block): Sequential(
          (0): ConvNormActivation(
            (0): Conv2d(160, 960, kernel_size=(1, 1), stride=(1, 1), bias=False)
            (1): BatchNorm2d(960, eps=0.001, momentum=0.01, affine=True, track_running_stats=True)
            (2): SiLU(inplace=True)
          )
          (1): ConvNormActivation(
            (0): Conv2d(960, 960, kernel_size=(3, 3), stride=(1, 1), padding=(1, 1), groups=960, bias=False)
            (1): BatchNorm2d(960, eps=0.001, momentum=0.01, affine=True, track_running_stats=True)
            (2): SiLU(inplace=True)
          )
          (2): SqueezeExcitation(
            (avgpool): AdaptiveAvgPool2d(output_size=1)
            (fc1): Conv2d(960, 40, kernel_size=(1, 1), stride=(1, 1))
            (fc2): Conv2d(40, 960, kernel_size=(1, 1), stride=(1, 1))
            (activation): SiLU(inplace=True)
            (scale_activation): Sigmoid()
          )
          (3): ConvNormActivation(
            (0): Conv2d(960, 160, kernel_size=(1, 1), stride=(1, 1), bias=False)
            (1): BatchNorm2d(160, eps=0.001, momentum=0.01, affine=True, track_running_stats=True)
          )
        )
        (stochastic_depth): StochasticDepth(p=0.08, mode=row)
      )
      (5): MBConv(
        (block): Sequential(
          (0): ConvNormActivation(
            (0): Conv2d(160, 960, kernel_size=(1, 1), stride=(1, 1), bias=False)
            (1): BatchNorm2d(960, eps=0.001, momentum=0.01, affine=True, track_running_stats=True)
            (2): SiLU(inplace=True)
          )
          (1): ConvNormActivation(
            (0): Conv2d(960, 960, kernel_size=(3, 3), stride=(1, 1), padding=(1, 1), groups=960, bias=False)
            (1): BatchNorm2d(960, eps=0.001, momentum=0.01, affine=True, track_running_stats=True)
            (2): SiLU(inplace=True)
          )
          (2): SqueezeExcitation(
            (avgpool): AdaptiveAvgPool2d(output_size=1)
            (fc1): Conv2d(960, 40, kernel_size=(1, 1), stride=(1, 1))
            (fc2): Conv2d(40, 960, kernel_size=(1, 1), stride=(1, 1))
            (activation): SiLU(inplace=True)
            (scale_activation): Sigmoid()
          )
          (3): ConvNormActivation(
            (0): Conv2d(960, 160, kernel_size=(1, 1), stride=(1, 1), bias=False)
            (1): BatchNorm2d(160, eps=0.001, momentum=0.01, affine=True, track_running_stats=True)
          )
        )
        (stochastic_depth): StochasticDepth(p=0.08363636363636365, mode=row)
      )
      (6): MBConv(
        (block): Sequential(
          (0): ConvNormActivation(
            (0): Conv2d(160, 960, kernel_size=(1, 1), stride=(1, 1), bias=False)
            (1): BatchNorm2d(960, eps=0.001, momentum=0.01, affine=True, track_running_stats=True)
            (2): SiLU(inplace=True)
          )
          (1): ConvNormActivation(
            (0): Conv2d(960, 960, kernel_size=(3, 3), stride=(1, 1), padding=(1, 1), groups=960, bias=False)
            (1): BatchNorm2d(960, eps=0.001, momentum=0.01, affine=True, track_running_stats=True)
            (2): SiLU(inplace=True)
          )
          (2): SqueezeExcitation(
            (avgpool): AdaptiveAvgPool2d(output_size=1)
            (fc1): Conv2d(960, 40, kernel_size=(1, 1), stride=(1, 1))
            (fc2): Conv2d(40, 960, kernel_size=(1, 1), stride=(1, 1))
            (activation): SiLU(inplace=True)
            (scale_activation): Sigmoid()
          )
          (3): ConvNormActivation(
            (0): Conv2d(960, 160, kernel_size=(1, 1), stride=(1, 1), bias=False)
            (1): BatchNorm2d(160, eps=0.001, momentum=0.01, affine=True, track_running_stats=True)
          )
        )
        (stochastic_depth): StochasticDepth(p=0.08727272727272728, mode=row)
      )
      (7): MBConv(
        (block): Sequential(
          (0): ConvNormActivation(
            (0): Conv2d(160, 960, kernel_size=(1, 1), stride=(1, 1), bias=False)
            (1): BatchNorm2d(960, eps=0.001, momentum=0.01, affine=True, track_running_stats=True)
            (2): SiLU(inplace=True)
          )
          (1): ConvNormActivation(
            (0): Conv2d(960, 960, kernel_size=(3, 3), stride=(1, 1), padding=(1, 1), groups=960, bias=False)
            (1): BatchNorm2d(960, eps=0.001, momentum=0.01, affine=True, track_running_stats=True)
            (2): SiLU(inplace=True)
          )
          (2): SqueezeExcitation(
            (avgpool): AdaptiveAvgPool2d(output_size=1)
            (fc1): Conv2d(960, 40, kernel_size=(1, 1), stride=(1, 1))
            (fc2): Conv2d(40, 960, kernel_size=(1, 1), stride=(1, 1))
            (activation): SiLU(inplace=True)
            (scale_activation): Sigmoid()
          )
          (3): ConvNormActivation(
            (0): Conv2d(960, 160, kernel_size=(1, 1), stride=(1, 1), bias=False)
            (1): BatchNorm2d(160, eps=0.001, momentum=0.01, affine=True, track_running_stats=True)
          )
        )
        (stochastic_depth): StochasticDepth(p=0.09090909090909091, mode=row)
      )
      (8): MBConv(
        (block): Sequential(
          (0): ConvNormActivation(
            (0): Conv2d(160, 960, kernel_size=(1, 1), stride=(1, 1), bias=False)
            (1): BatchNorm2d(960, eps=0.001, momentum=0.01, affine=True, track_running_stats=True)
            (2): SiLU(inplace=True)
          )
          (1): ConvNormActivation(
            (0): Conv2d(960, 960, kernel_size=(3, 3), stride=(1, 1), padding=(1, 1), groups=960, bias=False)
            (1): BatchNorm2d(960, eps=0.001, momentum=0.01, affine=True, track_running_stats=True)
            (2): SiLU(inplace=True)
          )
          (2): SqueezeExcitation(
            (avgpool): AdaptiveAvgPool2d(output_size=1)
            (fc1): Conv2d(960, 40, kernel_size=(1, 1), stride=(1, 1))
            (fc2): Conv2d(40, 960, kernel_size=(1, 1), stride=(1, 1))
            (activation): SiLU(inplace=True)
            (scale_activation): Sigmoid()
          )
          (3): ConvNormActivation(
            (0): Conv2d(960, 160, kernel_size=(1, 1), stride=(1, 1), bias=False)
            (1): BatchNorm2d(160, eps=0.001, momentum=0.01, affine=True, track_running_stats=True)
          )
        )
        (stochastic_depth): StochasticDepth(p=0.09454545454545454, mode=row)
      )
      (9): MBConv(
        (block): Sequential(
          (0): ConvNormActivation(
            (0): Conv2d(160, 960, kernel_size=(1, 1), stride=(1, 1), bias=False)
            (1): BatchNorm2d(960, eps=0.001, momentum=0.01, affine=True, track_running_stats=True)
            (2): SiLU(inplace=True)
          )
          (1): ConvNormActivation(
            (0): Conv2d(960, 960, kernel_size=(3, 3), stride=(1, 1), padding=(1, 1), groups=960, bias=False)
            (1): BatchNorm2d(960, eps=0.001, momentum=0.01, affine=True, track_running_stats=True)
            (2): SiLU(inplace=True)
          )
          (2): SqueezeExcitation(
            (avgpool): AdaptiveAvgPool2d(output_size=1)
            (fc1): Conv2d(960, 40, kernel_size=(1, 1), stride=(1, 1))
            (fc2): Conv2d(40, 960, kernel_size=(1, 1), stride=(1, 1))
            (activation): SiLU(inplace=True)
            (scale_activation): Sigmoid()
          )
          (3): ConvNormActivation(
            (0): Conv2d(960, 160, kernel_size=(1, 1), stride=(1, 1), bias=False)
            (1): BatchNorm2d(160, eps=0.001, momentum=0.01, affine=True, track_running_stats=True)
          )
        )
        (stochastic_depth): StochasticDepth(p=0.09818181818181819, mode=row)
      )
    )
    (5): Sequential(
      (0): MBConv(
        (block): Sequential(
          (0): ConvNormActivation(
            (0): Conv2d(160, 960, kernel_size=(1, 1), stride=(1, 1), bias=False)
            (1): BatchNorm2d(960, eps=0.001, momentum=0.01, affine=True, track_running_stats=True)
            (2): SiLU(inplace=True)
          )
          (1): ConvNormActivation(
            (0): Conv2d(960, 960, kernel_size=(5, 5), stride=(1, 1), padding=(2, 2), groups=960, bias=False)
            (1): BatchNorm2d(960, eps=0.001, momentum=0.01, affine=True, track_running_stats=True)
            (2): SiLU(inplace=True)
          )
          (2): SqueezeExcitation(
            (avgpool): AdaptiveAvgPool2d(output_size=1)
            (fc1): Conv2d(960, 40, kernel_size=(1, 1), stride=(1, 1))
            (fc2): Conv2d(40, 960, kernel_size=(1, 1), stride=(1, 1))
            (activation): SiLU(inplace=True)
            (scale_activation): Sigmoid()
          )
          (3): ConvNormActivation(
            (0): Conv2d(960, 224, kernel_size=(1, 1), stride=(1, 1), bias=False)
            (1): BatchNorm2d(224, eps=0.001, momentum=0.01, affine=True, track_running_stats=True)
          )
        )
        (stochastic_depth): StochasticDepth(p=0.10181818181818182, mode=row)
      )
      (1): MBConv(
        (block): Sequential(
          (0): ConvNormActivation(
            (0): Conv2d(224, 1344, kernel_size=(1, 1), stride=(1, 1), bias=False)
            (1): BatchNorm2d(1344, eps=0.001, momentum=0.01, affine=True, track_running_stats=True)
            (2): SiLU(inplace=True)
          )
          (1): ConvNormActivation(
            (0): Conv2d(1344, 1344, kernel_size=(5, 5), stride=(1, 1), padding=(2, 2), groups=1344, bias=False)
            (1): BatchNorm2d(1344, eps=0.001, momentum=0.01, affine=True, track_running_stats=True)
            (2): SiLU(inplace=True)
          )
          (2): SqueezeExcitation(
            (avgpool): AdaptiveAvgPool2d(output_size=1)
            (fc1): Conv2d(1344, 56, kernel_size=(1, 1), stride=(1, 1))
            (fc2): Conv2d(56, 1344, kernel_size=(1, 1), stride=(1, 1))
            (activation): SiLU(inplace=True)
            (scale_activation): Sigmoid()
          )
          (3): ConvNormActivation(
            (0): Conv2d(1344, 224, kernel_size=(1, 1), stride=(1, 1), bias=False)
            (1): BatchNorm2d(224, eps=0.001, momentum=0.01, affine=True, track_running_stats=True)
          )
        )
        (stochastic_depth): StochasticDepth(p=0.10545454545454547, mode=row)
      )
      (2): MBConv(
        (block): Sequential(
          (0): ConvNormActivation(
            (0): Conv2d(224, 1344, kernel_size=(1, 1), stride=(1, 1), bias=False)
            (1): BatchNorm2d(1344, eps=0.001, momentum=0.01, affine=True, track_running_stats=True)
            (2): SiLU(inplace=True)
          )
          (1): ConvNormActivation(
            (0): Conv2d(1344, 1344, kernel_size=(5, 5), stride=(1, 1), padding=(2, 2), groups=1344, bias=False)
            (1): BatchNorm2d(1344, eps=0.001, momentum=0.01, affine=True, track_running_stats=True)
            (2): SiLU(inplace=True)
          )
          (2): SqueezeExcitation(
            (avgpool): AdaptiveAvgPool2d(output_size=1)
            (fc1): Conv2d(1344, 56, kernel_size=(1, 1), stride=(1, 1))
            (fc2): Conv2d(56, 1344, kernel_size=(1, 1), stride=(1, 1))
            (activation): SiLU(inplace=True)
            (scale_activation): Sigmoid()
          )
          (3): ConvNormActivation(
            (0): Conv2d(1344, 224, kernel_size=(1, 1), stride=(1, 1), bias=False)
            (1): BatchNorm2d(224, eps=0.001, momentum=0.01, affine=True, track_running_stats=True)
          )
        )
        (stochastic_depth): StochasticDepth(p=0.10909090909090909, mode=row)
      )
      (3): MBConv(
        (block): Sequential(
          (0): ConvNormActivation(
            (0): Conv2d(224, 1344, kernel_size=(1, 1), stride=(1, 1), bias=False)
            (1): BatchNorm2d(1344, eps=0.001, momentum=0.01, affine=True, track_running_stats=True)
            (2): SiLU(inplace=True)
          )
          (1): ConvNormActivation(
            (0): Conv2d(1344, 1344, kernel_size=(5, 5), stride=(1, 1), padding=(2, 2), groups=1344, bias=False)
            (1): BatchNorm2d(1344, eps=0.001, momentum=0.01, affine=True, track_running_stats=True)
            (2): SiLU(inplace=True)
          )
          (2): SqueezeExcitation(
            (avgpool): AdaptiveAvgPool2d(output_size=1)
            (fc1): Conv2d(1344, 56, kernel_size=(1, 1), stride=(1, 1))
            (fc2): Conv2d(56, 1344, kernel_size=(1, 1), stride=(1, 1))
            (activation): SiLU(inplace=True)
            (scale_activation): Sigmoid()
          )
          (3): ConvNormActivation(
            (0): Conv2d(1344, 224, kernel_size=(1, 1), stride=(1, 1), bias=False)
            (1): BatchNorm2d(224, eps=0.001, momentum=0.01, affine=True, track_running_stats=True)
          )
        )
        (stochastic_depth): StochasticDepth(p=0.11272727272727273, mode=row)
      )
      (4): MBConv(
        (block): Sequential(
          (0): ConvNormActivation(
            (0): Conv2d(224, 1344, kernel_size=(1, 1), stride=(1, 1), bias=False)
            (1): BatchNorm2d(1344, eps=0.001, momentum=0.01, affine=True, track_running_stats=True)
            (2): SiLU(inplace=True)
          )
          (1): ConvNormActivation(
            (0): Conv2d(1344, 1344, kernel_size=(5, 5), stride=(1, 1), padding=(2, 2), groups=1344, bias=False)
            (1): BatchNorm2d(1344, eps=0.001, momentum=0.01, affine=True, track_running_stats=True)
            (2): SiLU(inplace=True)
          )
          (2): SqueezeExcitation(
            (avgpool): AdaptiveAvgPool2d(output_size=1)
            (fc1): Conv2d(1344, 56, kernel_size=(1, 1), stride=(1, 1))
            (fc2): Conv2d(56, 1344, kernel_size=(1, 1), stride=(1, 1))
            (activation): SiLU(inplace=True)
            (scale_activation): Sigmoid()
          )
          (3): ConvNormActivation(
            (0): Conv2d(1344, 224, kernel_size=(1, 1), stride=(1, 1), bias=False)
            (1): BatchNorm2d(224, eps=0.001, momentum=0.01, affine=True, track_running_stats=True)
          )
        )
        (stochastic_depth): StochasticDepth(p=0.11636363636363636, mode=row)
      )
      (5): MBConv(
        (block): Sequential(
          (0): ConvNormActivation(
            (0): Conv2d(224, 1344, kernel_size=(1, 1), stride=(1, 1), bias=False)
            (1): BatchNorm2d(1344, eps=0.001, momentum=0.01, affine=True, track_running_stats=True)
            (2): SiLU(inplace=True)
          )
          (1): ConvNormActivation(
            (0): Conv2d(1344, 1344, kernel_size=(5, 5), stride=(1, 1), padding=(2, 2), groups=1344, bias=False)
            (1): BatchNorm2d(1344, eps=0.001, momentum=0.01, affine=True, track_running_stats=True)
            (2): SiLU(inplace=True)
          )
          (2): SqueezeExcitation(
            (avgpool): AdaptiveAvgPool2d(output_size=1)
            (fc1): Conv2d(1344, 56, kernel_size=(1, 1), stride=(1, 1))
            (fc2): Conv2d(56, 1344, kernel_size=(1, 1), stride=(1, 1))
            (activation): SiLU(inplace=True)
            (scale_activation): Sigmoid()
          )
          (3): ConvNormActivation(
            (0): Conv2d(1344, 224, kernel_size=(1, 1), stride=(1, 1), bias=False)
            (1): BatchNorm2d(224, eps=0.001, momentum=0.01, affine=True, track_running_stats=True)
          )
        )
        (stochastic_depth): StochasticDepth(p=0.12000000000000001, mode=row)
      )
      (6): MBConv(
        (block): Sequential(
          (0): ConvNormActivation(
            (0): Conv2d(224, 1344, kernel_size=(1, 1), stride=(1, 1), bias=False)
            (1): BatchNorm2d(1344, eps=0.001, momentum=0.01, affine=True, track_running_stats=True)
            (2): SiLU(inplace=True)
          )
          (1): ConvNormActivation(
            (0): Conv2d(1344, 1344, kernel_size=(5, 5), stride=(1, 1), padding=(2, 2), groups=1344, bias=False)
            (1): BatchNorm2d(1344, eps=0.001, momentum=0.01, affine=True, track_running_stats=True)
            (2): SiLU(inplace=True)
          )
          (2): SqueezeExcitation(
            (avgpool): AdaptiveAvgPool2d(output_size=1)
            (fc1): Conv2d(1344, 56, kernel_size=(1, 1), stride=(1, 1))
            (fc2): Conv2d(56, 1344, kernel_size=(1, 1), stride=(1, 1))
            (activation): SiLU(inplace=True)
            (scale_activation): Sigmoid()
          )
          (3): ConvNormActivation(
            (0): Conv2d(1344, 224, kernel_size=(1, 1), stride=(1, 1), bias=False)
            (1): BatchNorm2d(224, eps=0.001, momentum=0.01, affine=True, track_running_stats=True)
          )
        )
        (stochastic_depth): StochasticDepth(p=0.12363636363636366, mode=row)
      )
      (7): MBConv(
        (block): Sequential(
          (0): ConvNormActivation(
            (0): Conv2d(224, 1344, kernel_size=(1, 1), stride=(1, 1), bias=False)
            (1): BatchNorm2d(1344, eps=0.001, momentum=0.01, affine=True, track_running_stats=True)
            (2): SiLU(inplace=True)
          )
          (1): ConvNormActivation(
            (0): Conv2d(1344, 1344, kernel_size=(5, 5), stride=(1, 1), padding=(2, 2), groups=1344, bias=False)
            (1): BatchNorm2d(1344, eps=0.001, momentum=0.01, affine=True, track_running_stats=True)
            (2): SiLU(inplace=True)
          )
          (2): SqueezeExcitation(
            (avgpool): AdaptiveAvgPool2d(output_size=1)
            (fc1): Conv2d(1344, 56, kernel_size=(1, 1), stride=(1, 1))
            (fc2): Conv2d(56, 1344, kernel_size=(1, 1), stride=(1, 1))
            (activation): SiLU(inplace=True)
            (scale_activation): Sigmoid()
          )
          (3): ConvNormActivation(
            (0): Conv2d(1344, 224, kernel_size=(1, 1), stride=(1, 1), bias=False)
            (1): BatchNorm2d(224, eps=0.001, momentum=0.01, affine=True, track_running_stats=True)
          )
        )
        (stochastic_depth): StochasticDepth(p=0.12727272727272726, mode=row)
      )
      (8): MBConv(
        (block): Sequential(
          (0): ConvNormActivation(
            (0): Conv2d(224, 1344, kernel_size=(1, 1), stride=(1, 1), bias=False)
            (1): BatchNorm2d(1344, eps=0.001, momentum=0.01, affine=True, track_running_stats=True)
            (2): SiLU(inplace=True)
          )
          (1): ConvNormActivation(
            (0): Conv2d(1344, 1344, kernel_size=(5, 5), stride=(1, 1), padding=(2, 2), groups=1344, bias=False)
            (1): BatchNorm2d(1344, eps=0.001, momentum=0.01, affine=True, track_running_stats=True)
            (2): SiLU(inplace=True)
          )
          (2): SqueezeExcitation(
            (avgpool): AdaptiveAvgPool2d(output_size=1)
            (fc1): Conv2d(1344, 56, kernel_size=(1, 1), stride=(1, 1))
            (fc2): Conv2d(56, 1344, kernel_size=(1, 1), stride=(1, 1))
            (activation): SiLU(inplace=True)
            (scale_activation): Sigmoid()
          )
          (3): ConvNormActivation(
            (0): Conv2d(1344, 224, kernel_size=(1, 1), stride=(1, 1), bias=False)
            (1): BatchNorm2d(224, eps=0.001, momentum=0.01, affine=True, track_running_stats=True)
          )
        )
        (stochastic_depth): StochasticDepth(p=0.13090909090909092, mode=row)
      )
      (9): MBConv(
        (block): Sequential(
          (0): ConvNormActivation(
            (0): Conv2d(224, 1344, kernel_size=(1, 1), stride=(1, 1), bias=False)
            (1): BatchNorm2d(1344, eps=0.001, momentum=0.01, affine=True, track_running_stats=True)
            (2): SiLU(inplace=True)
          )
          (1): ConvNormActivation(
            (0): Conv2d(1344, 1344, kernel_size=(5, 5), stride=(1, 1), padding=(2, 2), groups=1344, bias=False)
            (1): BatchNorm2d(1344, eps=0.001, momentum=0.01, affine=True, track_running_stats=True)
            (2): SiLU(inplace=True)
          )
          (2): SqueezeExcitation(
            (avgpool): AdaptiveAvgPool2d(output_size=1)
            (fc1): Conv2d(1344, 56, kernel_size=(1, 1), stride=(1, 1))
            (fc2): Conv2d(56, 1344, kernel_size=(1, 1), stride=(1, 1))
            (activation): SiLU(inplace=True)
            (scale_activation): Sigmoid()
          )
          (3): ConvNormActivation(
            (0): Conv2d(1344, 224, kernel_size=(1, 1), stride=(1, 1), bias=False)
            (1): BatchNorm2d(224, eps=0.001, momentum=0.01, affine=True, track_running_stats=True)
          )
        )
        (stochastic_depth): StochasticDepth(p=0.13454545454545455, mode=row)
      )
    )
    (6): Sequential(
      (0): MBConv(
        (block): Sequential(
          (0): ConvNormActivation(
            (0): Conv2d(224, 1344, kernel_size=(1, 1), stride=(1, 1), bias=False)
            (1): BatchNorm2d(1344, eps=0.001, momentum=0.01, affine=True, track_running_stats=True)
            (2): SiLU(inplace=True)
          )
          (1): ConvNormActivation(
            (0): Conv2d(1344, 1344, kernel_size=(5, 5), stride=(2, 2), padding=(2, 2), groups=1344, bias=False)
            (1): BatchNorm2d(1344, eps=0.001, momentum=0.01, affine=True, track_running_stats=True)
            (2): SiLU(inplace=True)
          )
          (2): SqueezeExcitation(
            (avgpool): AdaptiveAvgPool2d(output_size=1)
            (fc1): Conv2d(1344, 56, kernel_size=(1, 1), stride=(1, 1))
            (fc2): Conv2d(56, 1344, kernel_size=(1, 1), stride=(1, 1))
            (activation): SiLU(inplace=True)
            (scale_activation): Sigmoid()
          )
          (3): ConvNormActivation(
            (0): Conv2d(1344, 384, kernel_size=(1, 1), stride=(1, 1), bias=False)
            (1): BatchNorm2d(384, eps=0.001, momentum=0.01, affine=True, track_running_stats=True)
          )
        )
        (stochastic_depth): StochasticDepth(p=0.13818181818181818, mode=row)
      )
      (1): MBConv(
        (block): Sequential(
          (0): ConvNormActivation(
            (0): Conv2d(384, 2304, kernel_size=(1, 1), stride=(1, 1), bias=False)
            (1): BatchNorm2d(2304, eps=0.001, momentum=0.01, affine=True, track_running_stats=True)
            (2): SiLU(inplace=True)
          )
          (1): ConvNormActivation(
            (0): Conv2d(2304, 2304, kernel_size=(5, 5), stride=(1, 1), padding=(2, 2), groups=2304, bias=False)
            (1): BatchNorm2d(2304, eps=0.001, momentum=0.01, affine=True, track_running_stats=True)
            (2): SiLU(inplace=True)
          )
          (2): SqueezeExcitation(
            (avgpool): AdaptiveAvgPool2d(output_size=1)
            (fc1): Conv2d(2304, 96, kernel_size=(1, 1), stride=(1, 1))
            (fc2): Conv2d(96, 2304, kernel_size=(1, 1), stride=(1, 1))
            (activation): SiLU(inplace=True)
            (scale_activation): Sigmoid()
          )
          (3): ConvNormActivation(
            (0): Conv2d(2304, 384, kernel_size=(1, 1), stride=(1, 1), bias=False)
            (1): BatchNorm2d(384, eps=0.001, momentum=0.01, affine=True, track_running_stats=True)
          )
        )
        (stochastic_depth): StochasticDepth(p=0.14181818181818184, mode=row)
      )
      (2): MBConv(
        (block): Sequential(
          (0): ConvNormActivation(
            (0): Conv2d(384, 2304, kernel_size=(1, 1), stride=(1, 1), bias=False)
            (1): BatchNorm2d(2304, eps=0.001, momentum=0.01, affine=True, track_running_stats=True)
            (2): SiLU(inplace=True)
          )
          (1): ConvNormActivation(
            (0): Conv2d(2304, 2304, kernel_size=(5, 5), stride=(1, 1), padding=(2, 2), groups=2304, bias=False)
            (1): BatchNorm2d(2304, eps=0.001, momentum=0.01, affine=True, track_running_stats=True)
            (2): SiLU(inplace=True)
          )
          (2): SqueezeExcitation(
            (avgpool): AdaptiveAvgPool2d(output_size=1)
            (fc1): Conv2d(2304, 96, kernel_size=(1, 1), stride=(1, 1))
            (fc2): Conv2d(96, 2304, kernel_size=(1, 1), stride=(1, 1))
            (activation): SiLU(inplace=True)
            (scale_activation): Sigmoid()
          )
          (3): ConvNormActivation(
            (0): Conv2d(2304, 384, kernel_size=(1, 1), stride=(1, 1), bias=False)
            (1): BatchNorm2d(384, eps=0.001, momentum=0.01, affine=True, track_running_stats=True)
          )
        )
        (stochastic_depth): StochasticDepth(p=0.14545454545454545, mode=row)
      )
      (3): MBConv(
        (block): Sequential(
          (0): ConvNormActivation(
            (0): Conv2d(384, 2304, kernel_size=(1, 1), stride=(1, 1), bias=False)
            (1): BatchNorm2d(2304, eps=0.001, momentum=0.01, affine=True, track_running_stats=True)
            (2): SiLU(inplace=True)
          )
          (1): ConvNormActivation(
            (0): Conv2d(2304, 2304, kernel_size=(5, 5), stride=(1, 1), padding=(2, 2), groups=2304, bias=False)
            (1): BatchNorm2d(2304, eps=0.001, momentum=0.01, affine=True, track_running_stats=True)
            (2): SiLU(inplace=True)
          )
          (2): SqueezeExcitation(
            (avgpool): AdaptiveAvgPool2d(output_size=1)
            (fc1): Conv2d(2304, 96, kernel_size=(1, 1), stride=(1, 1))
            (fc2): Conv2d(96, 2304, kernel_size=(1, 1), stride=(1, 1))
            (activation): SiLU(inplace=True)
            (scale_activation): Sigmoid()
          )
          (3): ConvNormActivation(
            (0): Conv2d(2304, 384, kernel_size=(1, 1), stride=(1, 1), bias=False)
            (1): BatchNorm2d(384, eps=0.001, momentum=0.01, affine=True, track_running_stats=True)
          )
        )
        (stochastic_depth): StochasticDepth(p=0.1490909090909091, mode=row)
      )
      (4): MBConv(
        (block): Sequential(
          (0): ConvNormActivation(
            (0): Conv2d(384, 2304, kernel_size=(1, 1), stride=(1, 1), bias=False)
            (1): BatchNorm2d(2304, eps=0.001, momentum=0.01, affine=True, track_running_stats=True)
            (2): SiLU(inplace=True)
          )
          (1): ConvNormActivation(
            (0): Conv2d(2304, 2304, kernel_size=(5, 5), stride=(1, 1), padding=(2, 2), groups=2304, bias=False)
            (1): BatchNorm2d(2304, eps=0.001, momentum=0.01, affine=True, track_running_stats=True)
            (2): SiLU(inplace=True)
          )
          (2): SqueezeExcitation(
            (avgpool): AdaptiveAvgPool2d(output_size=1)
            (fc1): Conv2d(2304, 96, kernel_size=(1, 1), stride=(1, 1))
            (fc2): Conv2d(96, 2304, kernel_size=(1, 1), stride=(1, 1))
            (activation): SiLU(inplace=True)
            (scale_activation): Sigmoid()
          )
          (3): ConvNormActivation(
            (0): Conv2d(2304, 384, kernel_size=(1, 1), stride=(1, 1), bias=False)
            (1): BatchNorm2d(384, eps=0.001, momentum=0.01, affine=True, track_running_stats=True)
          )
        )
        (stochastic_depth): StochasticDepth(p=0.15272727272727274, mode=row)
      )
      (5): MBConv(
        (block): Sequential(
          (0): ConvNormActivation(
            (0): Conv2d(384, 2304, kernel_size=(1, 1), stride=(1, 1), bias=False)
            (1): BatchNorm2d(2304, eps=0.001, momentum=0.01, affine=True, track_running_stats=True)
            (2): SiLU(inplace=True)
          )
          (1): ConvNormActivation(
            (0): Conv2d(2304, 2304, kernel_size=(5, 5), stride=(1, 1), padding=(2, 2), groups=2304, bias=False)
            (1): BatchNorm2d(2304, eps=0.001, momentum=0.01, affine=True, track_running_stats=True)
            (2): SiLU(inplace=True)
          )
          (2): SqueezeExcitation(
            (avgpool): AdaptiveAvgPool2d(output_size=1)
            (fc1): Conv2d(2304, 96, kernel_size=(1, 1), stride=(1, 1))
            (fc2): Conv2d(96, 2304, kernel_size=(1, 1), stride=(1, 1))
            (activation): SiLU(inplace=True)
            (scale_activation): Sigmoid()
          )
          (3): ConvNormActivation(
            (0): Conv2d(2304, 384, kernel_size=(1, 1), stride=(1, 1), bias=False)
            (1): BatchNorm2d(384, eps=0.001, momentum=0.01, affine=True, track_running_stats=True)
          )
        )
        (stochastic_depth): StochasticDepth(p=0.15636363636363634, mode=row)
      )
      (6): MBConv(
        (block): Sequential(
          (0): ConvNormActivation(
            (0): Conv2d(384, 2304, kernel_size=(1, 1), stride=(1, 1), bias=False)
            (1): BatchNorm2d(2304, eps=0.001, momentum=0.01, affine=True, track_running_stats=True)
            (2): SiLU(inplace=True)
          )
          (1): ConvNormActivation(
            (0): Conv2d(2304, 2304, kernel_size=(5, 5), stride=(1, 1), padding=(2, 2), groups=2304, bias=False)
            (1): BatchNorm2d(2304, eps=0.001, momentum=0.01, affine=True, track_running_stats=True)
            (2): SiLU(inplace=True)
          )
          (2): SqueezeExcitation(
            (avgpool): AdaptiveAvgPool2d(output_size=1)
            (fc1): Conv2d(2304, 96, kernel_size=(1, 1), stride=(1, 1))
            (fc2): Conv2d(96, 2304, kernel_size=(1, 1), stride=(1, 1))
            (activation): SiLU(inplace=True)
            (scale_activation): Sigmoid()
          )
          (3): ConvNormActivation(
            (0): Conv2d(2304, 384, kernel_size=(1, 1), stride=(1, 1), bias=False)
            (1): BatchNorm2d(384, eps=0.001, momentum=0.01, affine=True, track_running_stats=True)
          )
        )
        (stochastic_depth): StochasticDepth(p=0.16, mode=row)
      )
      (7): MBConv(
        (block): Sequential(
          (0): ConvNormActivation(
            (0): Conv2d(384, 2304, kernel_size=(1, 1), stride=(1, 1), bias=False)
            (1): BatchNorm2d(2304, eps=0.001, momentum=0.01, affine=True, track_running_stats=True)
            (2): SiLU(inplace=True)
          )
          (1): ConvNormActivation(
            (0): Conv2d(2304, 2304, kernel_size=(5, 5), stride=(1, 1), padding=(2, 2), groups=2304, bias=False)
            (1): BatchNorm2d(2304, eps=0.001, momentum=0.01, affine=True, track_running_stats=True)
            (2): SiLU(inplace=True)
          )
          (2): SqueezeExcitation(
            (avgpool): AdaptiveAvgPool2d(output_size=1)
            (fc1): Conv2d(2304, 96, kernel_size=(1, 1), stride=(1, 1))
            (fc2): Conv2d(96, 2304, kernel_size=(1, 1), stride=(1, 1))
            (activation): SiLU(inplace=True)
            (scale_activation): Sigmoid()
          )
          (3): ConvNormActivation(
            (0): Conv2d(2304, 384, kernel_size=(1, 1), stride=(1, 1), bias=False)
            (1): BatchNorm2d(384, eps=0.001, momentum=0.01, affine=True, track_running_stats=True)
          )
        )
        (stochastic_depth): StochasticDepth(p=0.16363636363636364, mode=row)
      )
      (8): MBConv(
        (block): Sequential(
          (0): ConvNormActivation(
            (0): Conv2d(384, 2304, kernel_size=(1, 1), stride=(1, 1), bias=False)
            (1): BatchNorm2d(2304, eps=0.001, momentum=0.01, affine=True, track_running_stats=True)
            (2): SiLU(inplace=True)
          )
          (1): ConvNormActivation(
            (0): Conv2d(2304, 2304, kernel_size=(5, 5), stride=(1, 1), padding=(2, 2), groups=2304, bias=False)
            (1): BatchNorm2d(2304, eps=0.001, momentum=0.01, affine=True, track_running_stats=True)
            (2): SiLU(inplace=True)
          )
          (2): SqueezeExcitation(
            (avgpool): AdaptiveAvgPool2d(output_size=1)
            (fc1): Conv2d(2304, 96, kernel_size=(1, 1), stride=(1, 1))
            (fc2): Conv2d(96, 2304, kernel_size=(1, 1), stride=(1, 1))
            (activation): SiLU(inplace=True)
            (scale_activation): Sigmoid()
          )
          (3): ConvNormActivation(
            (0): Conv2d(2304, 384, kernel_size=(1, 1), stride=(1, 1), bias=False)
            (1): BatchNorm2d(384, eps=0.001, momentum=0.01, affine=True, track_running_stats=True)
          )
        )
        (stochastic_depth): StochasticDepth(p=0.1672727272727273, mode=row)
      )
      (9): MBConv(
        (block): Sequential(
          (0): ConvNormActivation(
            (0): Conv2d(384, 2304, kernel_size=(1, 1), stride=(1, 1), bias=False)
            (1): BatchNorm2d(2304, eps=0.001, momentum=0.01, affine=True, track_running_stats=True)
            (2): SiLU(inplace=True)
          )
          (1): ConvNormActivation(
            (0): Conv2d(2304, 2304, kernel_size=(5, 5), stride=(1, 1), padding=(2, 2), groups=2304, bias=False)
            (1): BatchNorm2d(2304, eps=0.001, momentum=0.01, affine=True, track_running_stats=True)
            (2): SiLU(inplace=True)
          )
          (2): SqueezeExcitation(
            (avgpool): AdaptiveAvgPool2d(output_size=1)
            (fc1): Conv2d(2304, 96, kernel_size=(1, 1), stride=(1, 1))
            (fc2): Conv2d(96, 2304, kernel_size=(1, 1), stride=(1, 1))
            (activation): SiLU(inplace=True)
            (scale_activation): Sigmoid()
          )
          (3): ConvNormActivation(
            (0): Conv2d(2304, 384, kernel_size=(1, 1), stride=(1, 1), bias=False)
            (1): BatchNorm2d(384, eps=0.001, momentum=0.01, affine=True, track_running_stats=True)
          )
        )
        (stochastic_depth): StochasticDepth(p=0.17090909090909093, mode=row)
      )
      (10): MBConv(
        (block): Sequential(
          (0): ConvNormActivation(
            (0): Conv2d(384, 2304, kernel_size=(1, 1), stride=(1, 1), bias=False)
            (1): BatchNorm2d(2304, eps=0.001, momentum=0.01, affine=True, track_running_stats=True)
            (2): SiLU(inplace=True)
          )
          (1): ConvNormActivation(
            (0): Conv2d(2304, 2304, kernel_size=(5, 5), stride=(1, 1), padding=(2, 2), groups=2304, bias=False)
            (1): BatchNorm2d(2304, eps=0.001, momentum=0.01, affine=True, track_running_stats=True)
            (2): SiLU(inplace=True)
          )
          (2): SqueezeExcitation(
            (avgpool): AdaptiveAvgPool2d(output_size=1)
            (fc1): Conv2d(2304, 96, kernel_size=(1, 1), stride=(1, 1))
            (fc2): Conv2d(96, 2304, kernel_size=(1, 1), stride=(1, 1))
            (activation): SiLU(inplace=True)
            (scale_activation): Sigmoid()
          )
          (3): ConvNormActivation(
            (0): Conv2d(2304, 384, kernel_size=(1, 1), stride=(1, 1), bias=False)
            (1): BatchNorm2d(384, eps=0.001, momentum=0.01, affine=True, track_running_stats=True)
          )
        )
        (stochastic_depth): StochasticDepth(p=0.17454545454545456, mode=row)
      )
      (11): MBConv(
        (block): Sequential(
          (0): ConvNormActivation(
            (0): Conv2d(384, 2304, kernel_size=(1, 1), stride=(1, 1), bias=False)
            (1): BatchNorm2d(2304, eps=0.001, momentum=0.01, affine=True, track_running_stats=True)
            (2): SiLU(inplace=True)
          )
          (1): ConvNormActivation(
            (0): Conv2d(2304, 2304, kernel_size=(5, 5), stride=(1, 1), padding=(2, 2), groups=2304, bias=False)
            (1): BatchNorm2d(2304, eps=0.001, momentum=0.01, affine=True, track_running_stats=True)
            (2): SiLU(inplace=True)
          )
          (2): SqueezeExcitation(
            (avgpool): AdaptiveAvgPool2d(output_size=1)
            (fc1): Conv2d(2304, 96, kernel_size=(1, 1), stride=(1, 1))
            (fc2): Conv2d(96, 2304, kernel_size=(1, 1), stride=(1, 1))
            (activation): SiLU(inplace=True)
            (scale_activation): Sigmoid()
          )
          (3): ConvNormActivation(
            (0): Conv2d(2304, 384, kernel_size=(1, 1), stride=(1, 1), bias=False)
            (1): BatchNorm2d(384, eps=0.001, momentum=0.01, affine=True, track_running_stats=True)
          )
        )
        (stochastic_depth): StochasticDepth(p=0.1781818181818182, mode=row)
      )
      (12): MBConv(
        (block): Sequential(
          (0): ConvNormActivation(
            (0): Conv2d(384, 2304, kernel_size=(1, 1), stride=(1, 1), bias=False)
            (1): BatchNorm2d(2304, eps=0.001, momentum=0.01, affine=True, track_running_stats=True)
            (2): SiLU(inplace=True)
          )
          (1): ConvNormActivation(
            (0): Conv2d(2304, 2304, kernel_size=(5, 5), stride=(1, 1), padding=(2, 2), groups=2304, bias=False)
            (1): BatchNorm2d(2304, eps=0.001, momentum=0.01, affine=True, track_running_stats=True)
            (2): SiLU(inplace=True)
          )
          (2): SqueezeExcitation(
            (avgpool): AdaptiveAvgPool2d(output_size=1)
            (fc1): Conv2d(2304, 96, kernel_size=(1, 1), stride=(1, 1))
            (fc2): Conv2d(96, 2304, kernel_size=(1, 1), stride=(1, 1))
            (activation): SiLU(inplace=True)
            (scale_activation): Sigmoid()
          )
          (3): ConvNormActivation(
            (0): Conv2d(2304, 384, kernel_size=(1, 1), stride=(1, 1), bias=False)
            (1): BatchNorm2d(384, eps=0.001, momentum=0.01, affine=True, track_running_stats=True)
          )
        )
        (stochastic_depth): StochasticDepth(p=0.18181818181818182, mode=row)
      )
    )
    (7): Sequential(
      (0): MBConv(
        (block): Sequential(
          (0): ConvNormActivation(
            (0): Conv2d(384, 2304, kernel_size=(1, 1), stride=(1, 1), bias=False)
            (1): BatchNorm2d(2304, eps=0.001, momentum=0.01, affine=True, track_running_stats=True)
            (2): SiLU(inplace=True)
          )
          (1): ConvNormActivation(
            (0): Conv2d(2304, 2304, kernel_size=(3, 3), stride=(1, 1), padding=(1, 1), groups=2304, bias=False)
            (1): BatchNorm2d(2304, eps=0.001, momentum=0.01, affine=True, track_running_stats=True)
            (2): SiLU(inplace=True)
          )
          (2): SqueezeExcitation(
            (avgpool): AdaptiveAvgPool2d(output_size=1)
            (fc1): Conv2d(2304, 96, kernel_size=(1, 1), stride=(1, 1))
            (fc2): Conv2d(96, 2304, kernel_size=(1, 1), stride=(1, 1))
            (activation): SiLU(inplace=True)
            (scale_activation): Sigmoid()
          )
          (3): ConvNormActivation(
            (0): Conv2d(2304, 640, kernel_size=(1, 1), stride=(1, 1), bias=False)
            (1): BatchNorm2d(640, eps=0.001, momentum=0.01, affine=True, track_running_stats=True)
          )
        )
        (stochastic_depth): StochasticDepth(p=0.18545454545454548, mode=row)
      )
      (1): MBConv(
        (block): Sequential(
          (0): ConvNormActivation(
            (0): Conv2d(640, 3840, kernel_size=(1, 1), stride=(1, 1), bias=False)
            (1): BatchNorm2d(3840, eps=0.001, momentum=0.01, affine=True, track_running_stats=True)
            (2): SiLU(inplace=True)
          )
          (1): ConvNormActivation(
            (0): Conv2d(3840, 3840, kernel_size=(3, 3), stride=(1, 1), padding=(1, 1), groups=3840, bias=False)
            (1): BatchNorm2d(3840, eps=0.001, momentum=0.01, affine=True, track_running_stats=True)
            (2): SiLU(inplace=True)
          )
          (2): SqueezeExcitation(
            (avgpool): AdaptiveAvgPool2d(output_size=1)
            (fc1): Conv2d(3840, 160, kernel_size=(1, 1), stride=(1, 1))
            (fc2): Conv2d(160, 3840, kernel_size=(1, 1), stride=(1, 1))
            (activation): SiLU(inplace=True)
            (scale_activation): Sigmoid()
          )
          (3): ConvNormActivation(
            (0): Conv2d(3840, 640, kernel_size=(1, 1), stride=(1, 1), bias=False)
            (1): BatchNorm2d(640, eps=0.001, momentum=0.01, affine=True, track_running_stats=True)
          )
        )
        (stochastic_depth): StochasticDepth(p=0.1890909090909091, mode=row)
      )
      (2): MBConv(
        (block): Sequential(
          (0): ConvNormActivation(
            (0): Conv2d(640, 3840, kernel_size=(1, 1), stride=(1, 1), bias=False)
            (1): BatchNorm2d(3840, eps=0.001, momentum=0.01, affine=True, track_running_stats=True)
            (2): SiLU(inplace=True)
          )
          (1): ConvNormActivation(
            (0): Conv2d(3840, 3840, kernel_size=(3, 3), stride=(1, 1), padding=(1, 1), groups=3840, bias=False)
            (1): BatchNorm2d(3840, eps=0.001, momentum=0.01, affine=True, track_running_stats=True)
            (2): SiLU(inplace=True)
          )
          (2): SqueezeExcitation(
            (avgpool): AdaptiveAvgPool2d(output_size=1)
            (fc1): Conv2d(3840, 160, kernel_size=(1, 1), stride=(1, 1))
            (fc2): Conv2d(160, 3840, kernel_size=(1, 1), stride=(1, 1))
            (activation): SiLU(inplace=True)
            (scale_activation): Sigmoid()
          )
          (3): ConvNormActivation(
            (0): Conv2d(3840, 640, kernel_size=(1, 1), stride=(1, 1), bias=False)
            (1): BatchNorm2d(640, eps=0.001, momentum=0.01, affine=True, track_running_stats=True)
          )
        )
        (stochastic_depth): StochasticDepth(p=0.19272727272727275, mode=row)
      )
      (3): MBConv(
        (block): Sequential(
          (0): ConvNormActivation(
            (0): Conv2d(640, 3840, kernel_size=(1, 1), stride=(1, 1), bias=False)
            (1): BatchNorm2d(3840, eps=0.001, momentum=0.01, affine=True, track_running_stats=True)
            (2): SiLU(inplace=True)
          )
          (1): ConvNormActivation(
            (0): Conv2d(3840, 3840, kernel_size=(3, 3), stride=(1, 1), padding=(1, 1), groups=3840, bias=False)
            (1): BatchNorm2d(3840, eps=0.001, momentum=0.01, affine=True, track_running_stats=True)
            (2): SiLU(inplace=True)
          )
          (2): SqueezeExcitation(
            (avgpool): AdaptiveAvgPool2d(output_size=1)
            (fc1): Conv2d(3840, 160, kernel_size=(1, 1), stride=(1, 1))
            (fc2): Conv2d(160, 3840, kernel_size=(1, 1), stride=(1, 1))
            (activation): SiLU(inplace=True)
            (scale_activation): Sigmoid()
          )
          (3): ConvNormActivation(
            (0): Conv2d(3840, 640, kernel_size=(1, 1), stride=(1, 1), bias=False)
            (1): BatchNorm2d(640, eps=0.001, momentum=0.01, affine=True, track_running_stats=True)
          )
        )
        (stochastic_depth): StochasticDepth(p=0.19636363636363638, mode=row)
      )
    )
    (8): ConvNormActivation(
      (0): Conv2d(640, 2560, kernel_size=(1, 1), stride=(1, 1), bias=False)
      (1): BatchNorm2d(2560, eps=0.001, momentum=0.01, affine=True, track_running_stats=True)
      (2): SiLU(inplace=True)
    )
  )
  (avgpool): AdaptiveAvgPool2d(output_size=1)
  (classifier): Sequential(
    (0): Dropout(p=0.5, inplace=True)
    (1): Linear(in_features=2560, out_features=1000, bias=True)
  )
)
CIFAR10
RANDOM SEED 4666
EntropySampling
Sequential(
  (0): ConvNormActivation(
    (0): Conv2d(3, 64, kernel_size=(3, 3), stride=(2, 2), padding=(1, 1), bias=False)
    (1): BatchNorm2d(64, eps=0.001, momentum=0.01, affine=True, track_running_stats=True)
    (2): SiLU(inplace=True)
  )
  (1): Sequential(
    (0): MBConv(
      (block): Sequential(
        (0): ConvNormActivation(
          (0): Conv2d(64, 64, kernel_size=(3, 3), stride=(1, 1), padding=(1, 1), groups=64, bias=False)
          (1): BatchNorm2d(64, eps=0.001, momentum=0.01, affine=True, track_running_stats=True)
          (2): SiLU(inplace=True)
        )
        (1): SqueezeExcitation(
          (avgpool): AdaptiveAvgPool2d(output_size=1)
          (fc1): Conv2d(64, 16, kernel_size=(1, 1), stride=(1, 1))
          (fc2): Conv2d(16, 64, kernel_size=(1, 1), stride=(1, 1))
          (activation): SiLU(inplace=True)
          (scale_activation): Sigmoid()
        )
        (2): ConvNormActivation(
          (0): Conv2d(64, 32, kernel_size=(1, 1), stride=(1, 1), bias=False)
          (1): BatchNorm2d(32, eps=0.001, momentum=0.01, affine=True, track_running_stats=True)
        )
      )
      (stochastic_depth): StochasticDepth(p=0.0, mode=row)
    )
    (1): MBConv(
      (block): Sequential(
        (0): ConvNormActivation(
          (0): Conv2d(32, 32, kernel_size=(3, 3), stride=(1, 1), padding=(1, 1), groups=32, bias=False)
          (1): BatchNorm2d(32, eps=0.001, momentum=0.01, affine=True, track_running_stats=True)
          (2): SiLU(inplace=True)
        )
        (1): SqueezeExcitation(
          (avgpool): AdaptiveAvgPool2d(output_size=1)
          (fc1): Conv2d(32, 8, kernel_size=(1, 1), stride=(1, 1))
          (fc2): Conv2d(8, 32, kernel_size=(1, 1), stride=(1, 1))
          (activation): SiLU(inplace=True)
          (scale_activation): Sigmoid()
        )
        (2): ConvNormActivation(
          (0): Conv2d(32, 32, kernel_size=(1, 1), stride=(1, 1), bias=False)
          (1): BatchNorm2d(32, eps=0.001, momentum=0.01, affine=True, track_running_stats=True)
        )
      )
      (stochastic_depth): StochasticDepth(p=0.0036363636363636364, mode=row)
    )
    (2): MBConv(
      (block): Sequential(
        (0): ConvNormActivation(
          (0): Conv2d(32, 32, kernel_size=(3, 3), stride=(1, 1), padding=(1, 1), groups=32, bias=False)
          (1): BatchNorm2d(32, eps=0.001, momentum=0.01, affine=True, track_running_stats=True)
          (2): SiLU(inplace=True)
        )
        (1): SqueezeExcitation(
          (avgpool): AdaptiveAvgPool2d(output_size=1)
          (fc1): Conv2d(32, 8, kernel_size=(1, 1), stride=(1, 1))
          (fc2): Conv2d(8, 32, kernel_size=(1, 1), stride=(1, 1))
          (activation): SiLU(inplace=True)
          (scale_activation): Sigmoid()
        )
        (2): ConvNormActivation(
          (0): Conv2d(32, 32, kernel_size=(1, 1), stride=(1, 1), bias=False)
          (1): BatchNorm2d(32, eps=0.001, momentum=0.01, affine=True, track_running_stats=True)
        )
      )
      (stochastic_depth): StochasticDepth(p=0.007272727272727273, mode=row)
    )
    (3): MBConv(
      (block): Sequential(
        (0): ConvNormActivation(
          (0): Conv2d(32, 32, kernel_size=(3, 3), stride=(1, 1), padding=(1, 1), groups=32, bias=False)
          (1): BatchNorm2d(32, eps=0.001, momentum=0.01, affine=True, track_running_stats=True)
          (2): SiLU(inplace=True)
        )
        (1): SqueezeExcitation(
          (avgpool): AdaptiveAvgPool2d(output_size=1)
          (fc1): Conv2d(32, 8, kernel_size=(1, 1), stride=(1, 1))
          (fc2): Conv2d(8, 32, kernel_size=(1, 1), stride=(1, 1))
          (activation): SiLU(inplace=True)
          (scale_activation): Sigmoid()
        )
        (2): ConvNormActivation(
          (0): Conv2d(32, 32, kernel_size=(1, 1), stride=(1, 1), bias=False)
          (1): BatchNorm2d(32, eps=0.001, momentum=0.01, affine=True, track_running_stats=True)
        )
      )
      (stochastic_depth): StochasticDepth(p=0.01090909090909091, mode=row)
    )
  )
  (2): Sequential(
    (0): MBConv(
      (block): Sequential(
        (0): ConvNormActivation(
          (0): Conv2d(32, 192, kernel_size=(1, 1), stride=(1, 1), bias=False)
          (1): BatchNorm2d(192, eps=0.001, momentum=0.01, affine=True, track_running_stats=True)
          (2): SiLU(inplace=True)
        )
        (1): ConvNormActivation(
          (0): Conv2d(192, 192, kernel_size=(3, 3), stride=(2, 2), padding=(1, 1), groups=192, bias=False)
          (1): BatchNorm2d(192, eps=0.001, momentum=0.01, affine=True, track_running_stats=True)
          (2): SiLU(inplace=True)
        )
        (2): SqueezeExcitation(
          (avgpool): AdaptiveAvgPool2d(output_size=1)
          (fc1): Conv2d(192, 8, kernel_size=(1, 1), stride=(1, 1))
          (fc2): Conv2d(8, 192, kernel_size=(1, 1), stride=(1, 1))
          (activation): SiLU(inplace=True)
          (scale_activation): Sigmoid()
        )
        (3): ConvNormActivation(
          (0): Conv2d(192, 48, kernel_size=(1, 1), stride=(1, 1), bias=False)
          (1): BatchNorm2d(48, eps=0.001, momentum=0.01, affine=True, track_running_stats=True)
        )
      )
      (stochastic_depth): StochasticDepth(p=0.014545454545454545, mode=row)
    )
    (1): MBConv(
      (block): Sequential(
        (0): ConvNormActivation(
          (0): Conv2d(48, 288, kernel_size=(1, 1), stride=(1, 1), bias=False)
          (1): BatchNorm2d(288, eps=0.001, momentum=0.01, affine=True, track_running_stats=True)
          (2): SiLU(inplace=True)
        )
        (1): ConvNormActivation(
          (0): Conv2d(288, 288, kernel_size=(3, 3), stride=(1, 1), padding=(1, 1), groups=288, bias=False)
          (1): BatchNorm2d(288, eps=0.001, momentum=0.01, affine=True, track_running_stats=True)
          (2): SiLU(inplace=True)
        )
        (2): SqueezeExcitation(
          (avgpool): AdaptiveAvgPool2d(output_size=1)
          (fc1): Conv2d(288, 12, kernel_size=(1, 1), stride=(1, 1))
          (fc2): Conv2d(12, 288, kernel_size=(1, 1), stride=(1, 1))
          (activation): SiLU(inplace=True)
          (scale_activation): Sigmoid()
        )
        (3): ConvNormActivation(
          (0): Conv2d(288, 48, kernel_size=(1, 1), stride=(1, 1), bias=False)
          (1): BatchNorm2d(48, eps=0.001, momentum=0.01, affine=True, track_running_stats=True)
        )
      )
      (stochastic_depth): StochasticDepth(p=0.01818181818181818, mode=row)
    )
    (2): MBConv(
      (block): Sequential(
        (0): ConvNormActivation(
          (0): Conv2d(48, 288, kernel_size=(1, 1), stride=(1, 1), bias=False)
          (1): BatchNorm2d(288, eps=0.001, momentum=0.01, affine=True, track_running_stats=True)
          (2): SiLU(inplace=True)
        )
        (1): ConvNormActivation(
          (0): Conv2d(288, 288, kernel_size=(3, 3), stride=(1, 1), padding=(1, 1), groups=288, bias=False)
          (1): BatchNorm2d(288, eps=0.001, momentum=0.01, affine=True, track_running_stats=True)
          (2): SiLU(inplace=True)
        )
        (2): SqueezeExcitation(
          (avgpool): AdaptiveAvgPool2d(output_size=1)
          (fc1): Conv2d(288, 12, kernel_size=(1, 1), stride=(1, 1))
          (fc2): Conv2d(12, 288, kernel_size=(1, 1), stride=(1, 1))
          (activation): SiLU(inplace=True)
          (scale_activation): Sigmoid()
        )
        (3): ConvNormActivation(
          (0): Conv2d(288, 48, kernel_size=(1, 1), stride=(1, 1), bias=False)
          (1): BatchNorm2d(48, eps=0.001, momentum=0.01, affine=True, track_running_stats=True)
        )
      )
      (stochastic_depth): StochasticDepth(p=0.02181818181818182, mode=row)
    )
    (3): MBConv(
      (block): Sequential(
        (0): ConvNormActivation(
          (0): Conv2d(48, 288, kernel_size=(1, 1), stride=(1, 1), bias=False)
          (1): BatchNorm2d(288, eps=0.001, momentum=0.01, affine=True, track_running_stats=True)
          (2): SiLU(inplace=True)
        )
        (1): ConvNormActivation(
          (0): Conv2d(288, 288, kernel_size=(3, 3), stride=(1, 1), padding=(1, 1), groups=288, bias=False)
          (1): BatchNorm2d(288, eps=0.001, momentum=0.01, affine=True, track_running_stats=True)
          (2): SiLU(inplace=True)
        )
        (2): SqueezeExcitation(
          (avgpool): AdaptiveAvgPool2d(output_size=1)
          (fc1): Conv2d(288, 12, kernel_size=(1, 1), stride=(1, 1))
          (fc2): Conv2d(12, 288, kernel_size=(1, 1), stride=(1, 1))
          (activation): SiLU(inplace=True)
          (scale_activation): Sigmoid()
        )
        (3): ConvNormActivation(
          (0): Conv2d(288, 48, kernel_size=(1, 1), stride=(1, 1), bias=False)
          (1): BatchNorm2d(48, eps=0.001, momentum=0.01, affine=True, track_running_stats=True)
        )
      )
      (stochastic_depth): StochasticDepth(p=0.025454545454545455, mode=row)
    )
    (4): MBConv(
      (block): Sequential(
        (0): ConvNormActivation(
          (0): Conv2d(48, 288, kernel_size=(1, 1), stride=(1, 1), bias=False)
          (1): BatchNorm2d(288, eps=0.001, momentum=0.01, affine=True, track_running_stats=True)
          (2): SiLU(inplace=True)
        )
        (1): ConvNormActivation(
          (0): Conv2d(288, 288, kernel_size=(3, 3), stride=(1, 1), padding=(1, 1), groups=288, bias=False)
          (1): BatchNorm2d(288, eps=0.001, momentum=0.01, affine=True, track_running_stats=True)
          (2): SiLU(inplace=True)
        )
        (2): SqueezeExcitation(
          (avgpool): AdaptiveAvgPool2d(output_size=1)
          (fc1): Conv2d(288, 12, kernel_size=(1, 1), stride=(1, 1))
          (fc2): Conv2d(12, 288, kernel_size=(1, 1), stride=(1, 1))
          (activation): SiLU(inplace=True)
          (scale_activation): Sigmoid()
        )
        (3): ConvNormActivation(
          (0): Conv2d(288, 48, kernel_size=(1, 1), stride=(1, 1), bias=False)
          (1): BatchNorm2d(48, eps=0.001, momentum=0.01, affine=True, track_running_stats=True)
        )
      )
      (stochastic_depth): StochasticDepth(p=0.02909090909090909, mode=row)
    )
    (5): MBConv(
      (block): Sequential(
        (0): ConvNormActivation(
          (0): Conv2d(48, 288, kernel_size=(1, 1), stride=(1, 1), bias=False)
          (1): BatchNorm2d(288, eps=0.001, momentum=0.01, affine=True, track_running_stats=True)
          (2): SiLU(inplace=True)
        )
        (1): ConvNormActivation(
          (0): Conv2d(288, 288, kernel_size=(3, 3), stride=(1, 1), padding=(1, 1), groups=288, bias=False)
          (1): BatchNorm2d(288, eps=0.001, momentum=0.01, affine=True, track_running_stats=True)
          (2): SiLU(inplace=True)
        )
        (2): SqueezeExcitation(
          (avgpool): AdaptiveAvgPool2d(output_size=1)
          (fc1): Conv2d(288, 12, kernel_size=(1, 1), stride=(1, 1))
          (fc2): Conv2d(12, 288, kernel_size=(1, 1), stride=(1, 1))
          (activation): SiLU(inplace=True)
          (scale_activation): Sigmoid()
        )
        (3): ConvNormActivation(
          (0): Conv2d(288, 48, kernel_size=(1, 1), stride=(1, 1), bias=False)
          (1): BatchNorm2d(48, eps=0.001, momentum=0.01, affine=True, track_running_stats=True)
        )
      )
      (stochastic_depth): StochasticDepth(p=0.03272727272727273, mode=row)
    )
    (6): MBConv(
      (block): Sequential(
        (0): ConvNormActivation(
          (0): Conv2d(48, 288, kernel_size=(1, 1), stride=(1, 1), bias=False)
          (1): BatchNorm2d(288, eps=0.001, momentum=0.01, affine=True, track_running_stats=True)
          (2): SiLU(inplace=True)
        )
        (1): ConvNormActivation(
          (0): Conv2d(288, 288, kernel_size=(3, 3), stride=(1, 1), padding=(1, 1), groups=288, bias=False)
          (1): BatchNorm2d(288, eps=0.001, momentum=0.01, affine=True, track_running_stats=True)
          (2): SiLU(inplace=True)
        )
        (2): SqueezeExcitation(
          (avgpool): AdaptiveAvgPool2d(output_size=1)
          (fc1): Conv2d(288, 12, kernel_size=(1, 1), stride=(1, 1))
          (fc2): Conv2d(12, 288, kernel_size=(1, 1), stride=(1, 1))
          (activation): SiLU(inplace=True)
          (scale_activation): Sigmoid()
        )
        (3): ConvNormActivation(
          (0): Conv2d(288, 48, kernel_size=(1, 1), stride=(1, 1), bias=False)
          (1): BatchNorm2d(48, eps=0.001, momentum=0.01, affine=True, track_running_stats=True)
        )
      )
      (stochastic_depth): StochasticDepth(p=0.03636363636363636, mode=row)
    )
  )
  (3): Sequential(
    (0): MBConv(
      (block): Sequential(
        (0): ConvNormActivation(
          (0): Conv2d(48, 288, kernel_size=(1, 1), stride=(1, 1), bias=False)
          (1): BatchNorm2d(288, eps=0.001, momentum=0.01, affine=True, track_running_stats=True)
          (2): SiLU(inplace=True)
        )
        (1): ConvNormActivation(
          (0): Conv2d(288, 288, kernel_size=(5, 5), stride=(2, 2), padding=(2, 2), groups=288, bias=False)
          (1): BatchNorm2d(288, eps=0.001, momentum=0.01, affine=True, track_running_stats=True)
          (2): SiLU(inplace=True)
        )
        (2): SqueezeExcitation(
          (avgpool): AdaptiveAvgPool2d(output_size=1)
          (fc1): Conv2d(288, 12, kernel_size=(1, 1), stride=(1, 1))
          (fc2): Conv2d(12, 288, kernel_size=(1, 1), stride=(1, 1))
          (activation): SiLU(inplace=True)
          (scale_activation): Sigmoid()
        )
        (3): ConvNormActivation(
          (0): Conv2d(288, 80, kernel_size=(1, 1), stride=(1, 1), bias=False)
          (1): BatchNorm2d(80, eps=0.001, momentum=0.01, affine=True, track_running_stats=True)
        )
      )
      (stochastic_depth): StochasticDepth(p=0.04, mode=row)
    )
    (1): MBConv(
      (block): Sequential(
        (0): ConvNormActivation(
          (0): Conv2d(80, 480, kernel_size=(1, 1), stride=(1, 1), bias=False)
          (1): BatchNorm2d(480, eps=0.001, momentum=0.01, affine=True, track_running_stats=True)
          (2): SiLU(inplace=True)
        )
        (1): ConvNormActivation(
          (0): Conv2d(480, 480, kernel_size=(5, 5), stride=(1, 1), padding=(2, 2), groups=480, bias=False)
          (1): BatchNorm2d(480, eps=0.001, momentum=0.01, affine=True, track_running_stats=True)
          (2): SiLU(inplace=True)
        )
        (2): SqueezeExcitation(
          (avgpool): AdaptiveAvgPool2d(output_size=1)
          (fc1): Conv2d(480, 20, kernel_size=(1, 1), stride=(1, 1))
          (fc2): Conv2d(20, 480, kernel_size=(1, 1), stride=(1, 1))
          (activation): SiLU(inplace=True)
          (scale_activation): Sigmoid()
        )
        (3): ConvNormActivation(
          (0): Conv2d(480, 80, kernel_size=(1, 1), stride=(1, 1), bias=False)
          (1): BatchNorm2d(80, eps=0.001, momentum=0.01, affine=True, track_running_stats=True)
        )
      )
      (stochastic_depth): StochasticDepth(p=0.04363636363636364, mode=row)
    )
    (2): MBConv(
      (block): Sequential(
        (0): ConvNormActivation(
          (0): Conv2d(80, 480, kernel_size=(1, 1), stride=(1, 1), bias=False)
          (1): BatchNorm2d(480, eps=0.001, momentum=0.01, affine=True, track_running_stats=True)
          (2): SiLU(inplace=True)
        )
        (1): ConvNormActivation(
          (0): Conv2d(480, 480, kernel_size=(5, 5), stride=(1, 1), padding=(2, 2), groups=480, bias=False)
          (1): BatchNorm2d(480, eps=0.001, momentum=0.01, affine=True, track_running_stats=True)
          (2): SiLU(inplace=True)
        )
        (2): SqueezeExcitation(
          (avgpool): AdaptiveAvgPool2d(output_size=1)
          (fc1): Conv2d(480, 20, kernel_size=(1, 1), stride=(1, 1))
          (fc2): Conv2d(20, 480, kernel_size=(1, 1), stride=(1, 1))
          (activation): SiLU(inplace=True)
          (scale_activation): Sigmoid()
        )
        (3): ConvNormActivation(
          (0): Conv2d(480, 80, kernel_size=(1, 1), stride=(1, 1), bias=False)
          (1): BatchNorm2d(80, eps=0.001, momentum=0.01, affine=True, track_running_stats=True)
        )
      )
      (stochastic_depth): StochasticDepth(p=0.04727272727272727, mode=row)
    )
    (3): MBConv(
      (block): Sequential(
        (0): ConvNormActivation(
          (0): Conv2d(80, 480, kernel_size=(1, 1), stride=(1, 1), bias=False)
          (1): BatchNorm2d(480, eps=0.001, momentum=0.01, affine=True, track_running_stats=True)
          (2): SiLU(inplace=True)
        )
        (1): ConvNormActivation(
          (0): Conv2d(480, 480, kernel_size=(5, 5), stride=(1, 1), padding=(2, 2), groups=480, bias=False)
          (1): BatchNorm2d(480, eps=0.001, momentum=0.01, affine=True, track_running_stats=True)
          (2): SiLU(inplace=True)
        )
        (2): SqueezeExcitation(
          (avgpool): AdaptiveAvgPool2d(output_size=1)
          (fc1): Conv2d(480, 20, kernel_size=(1, 1), stride=(1, 1))
          (fc2): Conv2d(20, 480, kernel_size=(1, 1), stride=(1, 1))
          (activation): SiLU(inplace=True)
          (scale_activation): Sigmoid()
        )
        (3): ConvNormActivation(
          (0): Conv2d(480, 80, kernel_size=(1, 1), stride=(1, 1), bias=False)
          (1): BatchNorm2d(80, eps=0.001, momentum=0.01, affine=True, track_running_stats=True)
        )
      )
      (stochastic_depth): StochasticDepth(p=0.05090909090909091, mode=row)
    )
    (4): MBConv(
      (block): Sequential(
        (0): ConvNormActivation(
          (0): Conv2d(80, 480, kernel_size=(1, 1), stride=(1, 1), bias=False)
          (1): BatchNorm2d(480, eps=0.001, momentum=0.01, affine=True, track_running_stats=True)
          (2): SiLU(inplace=True)
        )
        (1): ConvNormActivation(
          (0): Conv2d(480, 480, kernel_size=(5, 5), stride=(1, 1), padding=(2, 2), groups=480, bias=False)
          (1): BatchNorm2d(480, eps=0.001, momentum=0.01, affine=True, track_running_stats=True)
          (2): SiLU(inplace=True)
        )
        (2): SqueezeExcitation(
          (avgpool): AdaptiveAvgPool2d(output_size=1)
          (fc1): Conv2d(480, 20, kernel_size=(1, 1), stride=(1, 1))
          (fc2): Conv2d(20, 480, kernel_size=(1, 1), stride=(1, 1))
          (activation): SiLU(inplace=True)
          (scale_activation): Sigmoid()
        )
        (3): ConvNormActivation(
          (0): Conv2d(480, 80, kernel_size=(1, 1), stride=(1, 1), bias=False)
          (1): BatchNorm2d(80, eps=0.001, momentum=0.01, affine=True, track_running_stats=True)
        )
      )
      (stochastic_depth): StochasticDepth(p=0.05454545454545454, mode=row)
    )
    (5): MBConv(
      (block): Sequential(
        (0): ConvNormActivation(
          (0): Conv2d(80, 480, kernel_size=(1, 1), stride=(1, 1), bias=False)
          (1): BatchNorm2d(480, eps=0.001, momentum=0.01, affine=True, track_running_stats=True)
          (2): SiLU(inplace=True)
        )
        (1): ConvNormActivation(
          (0): Conv2d(480, 480, kernel_size=(5, 5), stride=(1, 1), padding=(2, 2), groups=480, bias=False)
          (1): BatchNorm2d(480, eps=0.001, momentum=0.01, affine=True, track_running_stats=True)
          (2): SiLU(inplace=True)
        )
        (2): SqueezeExcitation(
          (avgpool): AdaptiveAvgPool2d(output_size=1)
          (fc1): Conv2d(480, 20, kernel_size=(1, 1), stride=(1, 1))
          (fc2): Conv2d(20, 480, kernel_size=(1, 1), stride=(1, 1))
          (activation): SiLU(inplace=True)
          (scale_activation): Sigmoid()
        )
        (3): ConvNormActivation(
          (0): Conv2d(480, 80, kernel_size=(1, 1), stride=(1, 1), bias=False)
          (1): BatchNorm2d(80, eps=0.001, momentum=0.01, affine=True, track_running_stats=True)
        )
      )
      (stochastic_depth): StochasticDepth(p=0.05818181818181818, mode=row)
    )
    (6): MBConv(
      (block): Sequential(
        (0): ConvNormActivation(
          (0): Conv2d(80, 480, kernel_size=(1, 1), stride=(1, 1), bias=False)
          (1): BatchNorm2d(480, eps=0.001, momentum=0.01, affine=True, track_running_stats=True)
          (2): SiLU(inplace=True)
        )
        (1): ConvNormActivation(
          (0): Conv2d(480, 480, kernel_size=(5, 5), stride=(1, 1), padding=(2, 2), groups=480, bias=False)
          (1): BatchNorm2d(480, eps=0.001, momentum=0.01, affine=True, track_running_stats=True)
          (2): SiLU(inplace=True)
        )
        (2): SqueezeExcitation(
          (avgpool): AdaptiveAvgPool2d(output_size=1)
          (fc1): Conv2d(480, 20, kernel_size=(1, 1), stride=(1, 1))
          (fc2): Conv2d(20, 480, kernel_size=(1, 1), stride=(1, 1))
          (activation): SiLU(inplace=True)
          (scale_activation): Sigmoid()
        )
        (3): ConvNormActivation(
          (0): Conv2d(480, 80, kernel_size=(1, 1), stride=(1, 1), bias=False)
          (1): BatchNorm2d(80, eps=0.001, momentum=0.01, affine=True, track_running_stats=True)
        )
      )
      (stochastic_depth): StochasticDepth(p=0.06181818181818183, mode=row)
    )
  )
  (4): Sequential(
    (0): MBConv(
      (block): Sequential(
        (0): ConvNormActivation(
          (0): Conv2d(80, 480, kernel_size=(1, 1), stride=(1, 1), bias=False)
          (1): BatchNorm2d(480, eps=0.001, momentum=0.01, affine=True, track_running_stats=True)
          (2): SiLU(inplace=True)
        )
        (1): ConvNormActivation(
          (0): Conv2d(480, 480, kernel_size=(3, 3), stride=(2, 2), padding=(1, 1), groups=480, bias=False)
          (1): BatchNorm2d(480, eps=0.001, momentum=0.01, affine=True, track_running_stats=True)
          (2): SiLU(inplace=True)
        )
        (2): SqueezeExcitation(
          (avgpool): AdaptiveAvgPool2d(output_size=1)
          (fc1): Conv2d(480, 20, kernel_size=(1, 1), stride=(1, 1))
          (fc2): Conv2d(20, 480, kernel_size=(1, 1), stride=(1, 1))
          (activation): SiLU(inplace=True)
          (scale_activation): Sigmoid()
        )
        (3): ConvNormActivation(
          (0): Conv2d(480, 160, kernel_size=(1, 1), stride=(1, 1), bias=False)
          (1): BatchNorm2d(160, eps=0.001, momentum=0.01, affine=True, track_running_stats=True)
        )
      )
      (stochastic_depth): StochasticDepth(p=0.06545454545454546, mode=row)
    )
    (1): MBConv(
      (block): Sequential(
        (0): ConvNormActivation(
          (0): Conv2d(160, 960, kernel_size=(1, 1), stride=(1, 1), bias=False)
          (1): BatchNorm2d(960, eps=0.001, momentum=0.01, affine=True, track_running_stats=True)
          (2): SiLU(inplace=True)
        )
        (1): ConvNormActivation(
          (0): Conv2d(960, 960, kernel_size=(3, 3), stride=(1, 1), padding=(1, 1), groups=960, bias=False)
          (1): BatchNorm2d(960, eps=0.001, momentum=0.01, affine=True, track_running_stats=True)
          (2): SiLU(inplace=True)
        )
        (2): SqueezeExcitation(
          (avgpool): AdaptiveAvgPool2d(output_size=1)
          (fc1): Conv2d(960, 40, kernel_size=(1, 1), stride=(1, 1))
          (fc2): Conv2d(40, 960, kernel_size=(1, 1), stride=(1, 1))
          (activation): SiLU(inplace=True)
          (scale_activation): Sigmoid()
        )
        (3): ConvNormActivation(
          (0): Conv2d(960, 160, kernel_size=(1, 1), stride=(1, 1), bias=False)
          (1): BatchNorm2d(160, eps=0.001, momentum=0.01, affine=True, track_running_stats=True)
        )
      )
      (stochastic_depth): StochasticDepth(p=0.06909090909090909, mode=row)
    )
    (2): MBConv(
      (block): Sequential(
        (0): ConvNormActivation(
          (0): Conv2d(160, 960, kernel_size=(1, 1), stride=(1, 1), bias=False)
          (1): BatchNorm2d(960, eps=0.001, momentum=0.01, affine=True, track_running_stats=True)
          (2): SiLU(inplace=True)
        )
        (1): ConvNormActivation(
          (0): Conv2d(960, 960, kernel_size=(3, 3), stride=(1, 1), padding=(1, 1), groups=960, bias=False)
          (1): BatchNorm2d(960, eps=0.001, momentum=0.01, affine=True, track_running_stats=True)
          (2): SiLU(inplace=True)
        )
        (2): SqueezeExcitation(
          (avgpool): AdaptiveAvgPool2d(output_size=1)
          (fc1): Conv2d(960, 40, kernel_size=(1, 1), stride=(1, 1))
          (fc2): Conv2d(40, 960, kernel_size=(1, 1), stride=(1, 1))
          (activation): SiLU(inplace=True)
          (scale_activation): Sigmoid()
        )
        (3): ConvNormActivation(
          (0): Conv2d(960, 160, kernel_size=(1, 1), stride=(1, 1), bias=False)
          (1): BatchNorm2d(160, eps=0.001, momentum=0.01, affine=True, track_running_stats=True)
        )
      )
      (stochastic_depth): StochasticDepth(p=0.07272727272727272, mode=row)
    )
    (3): MBConv(
      (block): Sequential(
        (0): ConvNormActivation(
          (0): Conv2d(160, 960, kernel_size=(1, 1), stride=(1, 1), bias=False)
          (1): BatchNorm2d(960, eps=0.001, momentum=0.01, affine=True, track_running_stats=True)
          (2): SiLU(inplace=True)
        )
        (1): ConvNormActivation(
          (0): Conv2d(960, 960, kernel_size=(3, 3), stride=(1, 1), padding=(1, 1), groups=960, bias=False)
          (1): BatchNorm2d(960, eps=0.001, momentum=0.01, affine=True, track_running_stats=True)
          (2): SiLU(inplace=True)
        )
        (2): SqueezeExcitation(
          (avgpool): AdaptiveAvgPool2d(output_size=1)
          (fc1): Conv2d(960, 40, kernel_size=(1, 1), stride=(1, 1))
          (fc2): Conv2d(40, 960, kernel_size=(1, 1), stride=(1, 1))
          (activation): SiLU(inplace=True)
          (scale_activation): Sigmoid()
        )
        (3): ConvNormActivation(
          (0): Conv2d(960, 160, kernel_size=(1, 1), stride=(1, 1), bias=False)
          (1): BatchNorm2d(160, eps=0.001, momentum=0.01, affine=True, track_running_stats=True)
        )
      )
      (stochastic_depth): StochasticDepth(p=0.07636363636363637, mode=row)
    )
    (4): MBConv(
      (block): Sequential(
        (0): ConvNormActivation(
          (0): Conv2d(160, 960, kernel_size=(1, 1), stride=(1, 1), bias=False)
          (1): BatchNorm2d(960, eps=0.001, momentum=0.01, affine=True, track_running_stats=True)
          (2): SiLU(inplace=True)
        )
        (1): ConvNormActivation(
          (0): Conv2d(960, 960, kernel_size=(3, 3), stride=(1, 1), padding=(1, 1), groups=960, bias=False)
          (1): BatchNorm2d(960, eps=0.001, momentum=0.01, affine=True, track_running_stats=True)
          (2): SiLU(inplace=True)
        )
        (2): SqueezeExcitation(
          (avgpool): AdaptiveAvgPool2d(output_size=1)
          (fc1): Conv2d(960, 40, kernel_size=(1, 1), stride=(1, 1))
          (fc2): Conv2d(40, 960, kernel_size=(1, 1), stride=(1, 1))
          (activation): SiLU(inplace=True)
          (scale_activation): Sigmoid()
        )
        (3): ConvNormActivation(
          (0): Conv2d(960, 160, kernel_size=(1, 1), stride=(1, 1), bias=False)
          (1): BatchNorm2d(160, eps=0.001, momentum=0.01, affine=True, track_running_stats=True)
        )
      )
      (stochastic_depth): StochasticDepth(p=0.08, mode=row)
    )
    (5): MBConv(
      (block): Sequential(
        (0): ConvNormActivation(
          (0): Conv2d(160, 960, kernel_size=(1, 1), stride=(1, 1), bias=False)
          (1): BatchNorm2d(960, eps=0.001, momentum=0.01, affine=True, track_running_stats=True)
          (2): SiLU(inplace=True)
        )
        (1): ConvNormActivation(
          (0): Conv2d(960, 960, kernel_size=(3, 3), stride=(1, 1), padding=(1, 1), groups=960, bias=False)
          (1): BatchNorm2d(960, eps=0.001, momentum=0.01, affine=True, track_running_stats=True)
          (2): SiLU(inplace=True)
        )
        (2): SqueezeExcitation(
          (avgpool): AdaptiveAvgPool2d(output_size=1)
          (fc1): Conv2d(960, 40, kernel_size=(1, 1), stride=(1, 1))
          (fc2): Conv2d(40, 960, kernel_size=(1, 1), stride=(1, 1))
          (activation): SiLU(inplace=True)
          (scale_activation): Sigmoid()
        )
        (3): ConvNormActivation(
          (0): Conv2d(960, 160, kernel_size=(1, 1), stride=(1, 1), bias=False)
          (1): BatchNorm2d(160, eps=0.001, momentum=0.01, affine=True, track_running_stats=True)
        )
      )
      (stochastic_depth): StochasticDepth(p=0.08363636363636365, mode=row)
    )
    (6): MBConv(
      (block): Sequential(
        (0): ConvNormActivation(
          (0): Conv2d(160, 960, kernel_size=(1, 1), stride=(1, 1), bias=False)
          (1): BatchNorm2d(960, eps=0.001, momentum=0.01, affine=True, track_running_stats=True)
          (2): SiLU(inplace=True)
        )
        (1): ConvNormActivation(
          (0): Conv2d(960, 960, kernel_size=(3, 3), stride=(1, 1), padding=(1, 1), groups=960, bias=False)
          (1): BatchNorm2d(960, eps=0.001, momentum=0.01, affine=True, track_running_stats=True)
          (2): SiLU(inplace=True)
        )
        (2): SqueezeExcitation(
          (avgpool): AdaptiveAvgPool2d(output_size=1)
          (fc1): Conv2d(960, 40, kernel_size=(1, 1), stride=(1, 1))
          (fc2): Conv2d(40, 960, kernel_size=(1, 1), stride=(1, 1))
          (activation): SiLU(inplace=True)
          (scale_activation): Sigmoid()
        )
        (3): ConvNormActivation(
          (0): Conv2d(960, 160, kernel_size=(1, 1), stride=(1, 1), bias=False)
          (1): BatchNorm2d(160, eps=0.001, momentum=0.01, affine=True, track_running_stats=True)
        )
      )
      (stochastic_depth): StochasticDepth(p=0.08727272727272728, mode=row)
    )
    (7): MBConv(
      (block): Sequential(
        (0): ConvNormActivation(
          (0): Conv2d(160, 960, kernel_size=(1, 1), stride=(1, 1), bias=False)
          (1): BatchNorm2d(960, eps=0.001, momentum=0.01, affine=True, track_running_stats=True)
          (2): SiLU(inplace=True)
        )
        (1): ConvNormActivation(
          (0): Conv2d(960, 960, kernel_size=(3, 3), stride=(1, 1), padding=(1, 1), groups=960, bias=False)
          (1): BatchNorm2d(960, eps=0.001, momentum=0.01, affine=True, track_running_stats=True)
          (2): SiLU(inplace=True)
        )
        (2): SqueezeExcitation(
          (avgpool): AdaptiveAvgPool2d(output_size=1)
          (fc1): Conv2d(960, 40, kernel_size=(1, 1), stride=(1, 1))
          (fc2): Conv2d(40, 960, kernel_size=(1, 1), stride=(1, 1))
          (activation): SiLU(inplace=True)
          (scale_activation): Sigmoid()
        )
        (3): ConvNormActivation(
          (0): Conv2d(960, 160, kernel_size=(1, 1), stride=(1, 1), bias=False)
          (1): BatchNorm2d(160, eps=0.001, momentum=0.01, affine=True, track_running_stats=True)
        )
      )
      (stochastic_depth): StochasticDepth(p=0.09090909090909091, mode=row)
    )
    (8): MBConv(
      (block): Sequential(
        (0): ConvNormActivation(
          (0): Conv2d(160, 960, kernel_size=(1, 1), stride=(1, 1), bias=False)
          (1): BatchNorm2d(960, eps=0.001, momentum=0.01, affine=True, track_running_stats=True)
          (2): SiLU(inplace=True)
        )
        (1): ConvNormActivation(
          (0): Conv2d(960, 960, kernel_size=(3, 3), stride=(1, 1), padding=(1, 1), groups=960, bias=False)
          (1): BatchNorm2d(960, eps=0.001, momentum=0.01, affine=True, track_running_stats=True)
          (2): SiLU(inplace=True)
        )
        (2): SqueezeExcitation(
          (avgpool): AdaptiveAvgPool2d(output_size=1)
          (fc1): Conv2d(960, 40, kernel_size=(1, 1), stride=(1, 1))
          (fc2): Conv2d(40, 960, kernel_size=(1, 1), stride=(1, 1))
          (activation): SiLU(inplace=True)
          (scale_activation): Sigmoid()
        )
        (3): ConvNormActivation(
          (0): Conv2d(960, 160, kernel_size=(1, 1), stride=(1, 1), bias=False)
          (1): BatchNorm2d(160, eps=0.001, momentum=0.01, affine=True, track_running_stats=True)
        )
      )
      (stochastic_depth): StochasticDepth(p=0.09454545454545454, mode=row)
    )
    (9): MBConv(
      (block): Sequential(
        (0): ConvNormActivation(
          (0): Conv2d(160, 960, kernel_size=(1, 1), stride=(1, 1), bias=False)
          (1): BatchNorm2d(960, eps=0.001, momentum=0.01, affine=True, track_running_stats=True)
          (2): SiLU(inplace=True)
        )
        (1): ConvNormActivation(
          (0): Conv2d(960, 960, kernel_size=(3, 3), stride=(1, 1), padding=(1, 1), groups=960, bias=False)
          (1): BatchNorm2d(960, eps=0.001, momentum=0.01, affine=True, track_running_stats=True)
          (2): SiLU(inplace=True)
        )
        (2): SqueezeExcitation(
          (avgpool): AdaptiveAvgPool2d(output_size=1)
          (fc1): Conv2d(960, 40, kernel_size=(1, 1), stride=(1, 1))
          (fc2): Conv2d(40, 960, kernel_size=(1, 1), stride=(1, 1))
          (activation): SiLU(inplace=True)
          (scale_activation): Sigmoid()
        )
        (3): ConvNormActivation(
          (0): Conv2d(960, 160, kernel_size=(1, 1), stride=(1, 1), bias=False)
          (1): BatchNorm2d(160, eps=0.001, momentum=0.01, affine=True, track_running_stats=True)
        )
      )
      (stochastic_depth): StochasticDepth(p=0.09818181818181819, mode=row)
    )
  )
  (5): Sequential(
    (0): MBConv(
      (block): Sequential(
        (0): ConvNormActivation(
          (0): Conv2d(160, 960, kernel_size=(1, 1), stride=(1, 1), bias=False)
          (1): BatchNorm2d(960, eps=0.001, momentum=0.01, affine=True, track_running_stats=True)
          (2): SiLU(inplace=True)
        )
        (1): ConvNormActivation(
          (0): Conv2d(960, 960, kernel_size=(5, 5), stride=(1, 1), padding=(2, 2), groups=960, bias=False)
          (1): BatchNorm2d(960, eps=0.001, momentum=0.01, affine=True, track_running_stats=True)
          (2): SiLU(inplace=True)
        )
        (2): SqueezeExcitation(
          (avgpool): AdaptiveAvgPool2d(output_size=1)
          (fc1): Conv2d(960, 40, kernel_size=(1, 1), stride=(1, 1))
          (fc2): Conv2d(40, 960, kernel_size=(1, 1), stride=(1, 1))
          (activation): SiLU(inplace=True)
          (scale_activation): Sigmoid()
        )
        (3): ConvNormActivation(
          (0): Conv2d(960, 224, kernel_size=(1, 1), stride=(1, 1), bias=False)
          (1): BatchNorm2d(224, eps=0.001, momentum=0.01, affine=True, track_running_stats=True)
        )
      )
      (stochastic_depth): StochasticDepth(p=0.10181818181818182, mode=row)
    )
    (1): MBConv(
      (block): Sequential(
        (0): ConvNormActivation(
          (0): Conv2d(224, 1344, kernel_size=(1, 1), stride=(1, 1), bias=False)
          (1): BatchNorm2d(1344, eps=0.001, momentum=0.01, affine=True, track_running_stats=True)
          (2): SiLU(inplace=True)
        )
        (1): ConvNormActivation(
          (0): Conv2d(1344, 1344, kernel_size=(5, 5), stride=(1, 1), padding=(2, 2), groups=1344, bias=False)
          (1): BatchNorm2d(1344, eps=0.001, momentum=0.01, affine=True, track_running_stats=True)
          (2): SiLU(inplace=True)
        )
        (2): SqueezeExcitation(
          (avgpool): AdaptiveAvgPool2d(output_size=1)
          (fc1): Conv2d(1344, 56, kernel_size=(1, 1), stride=(1, 1))
          (fc2): Conv2d(56, 1344, kernel_size=(1, 1), stride=(1, 1))
          (activation): SiLU(inplace=True)
          (scale_activation): Sigmoid()
        )
        (3): ConvNormActivation(
          (0): Conv2d(1344, 224, kernel_size=(1, 1), stride=(1, 1), bias=False)
          (1): BatchNorm2d(224, eps=0.001, momentum=0.01, affine=True, track_running_stats=True)
        )
      )
      (stochastic_depth): StochasticDepth(p=0.10545454545454547, mode=row)
    )
    (2): MBConv(
      (block): Sequential(
        (0): ConvNormActivation(
          (0): Conv2d(224, 1344, kernel_size=(1, 1), stride=(1, 1), bias=False)
          (1): BatchNorm2d(1344, eps=0.001, momentum=0.01, affine=True, track_running_stats=True)
          (2): SiLU(inplace=True)
        )
        (1): ConvNormActivation(
          (0): Conv2d(1344, 1344, kernel_size=(5, 5), stride=(1, 1), padding=(2, 2), groups=1344, bias=False)
          (1): BatchNorm2d(1344, eps=0.001, momentum=0.01, affine=True, track_running_stats=True)
          (2): SiLU(inplace=True)
        )
        (2): SqueezeExcitation(
          (avgpool): AdaptiveAvgPool2d(output_size=1)
          (fc1): Conv2d(1344, 56, kernel_size=(1, 1), stride=(1, 1))
          (fc2): Conv2d(56, 1344, kernel_size=(1, 1), stride=(1, 1))
          (activation): SiLU(inplace=True)
          (scale_activation): Sigmoid()
        )
        (3): ConvNormActivation(
          (0): Conv2d(1344, 224, kernel_size=(1, 1), stride=(1, 1), bias=False)
          (1): BatchNorm2d(224, eps=0.001, momentum=0.01, affine=True, track_running_stats=True)
        )
      )
      (stochastic_depth): StochasticDepth(p=0.10909090909090909, mode=row)
    )
    (3): MBConv(
      (block): Sequential(
        (0): ConvNormActivation(
          (0): Conv2d(224, 1344, kernel_size=(1, 1), stride=(1, 1), bias=False)
          (1): BatchNorm2d(1344, eps=0.001, momentum=0.01, affine=True, track_running_stats=True)
          (2): SiLU(inplace=True)
        )
        (1): ConvNormActivation(
          (0): Conv2d(1344, 1344, kernel_size=(5, 5), stride=(1, 1), padding=(2, 2), groups=1344, bias=False)
          (1): BatchNorm2d(1344, eps=0.001, momentum=0.01, affine=True, track_running_stats=True)
          (2): SiLU(inplace=True)
        )
        (2): SqueezeExcitation(
          (avgpool): AdaptiveAvgPool2d(output_size=1)
          (fc1): Conv2d(1344, 56, kernel_size=(1, 1), stride=(1, 1))
          (fc2): Conv2d(56, 1344, kernel_size=(1, 1), stride=(1, 1))
          (activation): SiLU(inplace=True)
          (scale_activation): Sigmoid()
        )
        (3): ConvNormActivation(
          (0): Conv2d(1344, 224, kernel_size=(1, 1), stride=(1, 1), bias=False)
          (1): BatchNorm2d(224, eps=0.001, momentum=0.01, affine=True, track_running_stats=True)
        )
      )
      (stochastic_depth): StochasticDepth(p=0.11272727272727273, mode=row)
    )
    (4): MBConv(
      (block): Sequential(
        (0): ConvNormActivation(
          (0): Conv2d(224, 1344, kernel_size=(1, 1), stride=(1, 1), bias=False)
          (1): BatchNorm2d(1344, eps=0.001, momentum=0.01, affine=True, track_running_stats=True)
          (2): SiLU(inplace=True)
        )
        (1): ConvNormActivation(
          (0): Conv2d(1344, 1344, kernel_size=(5, 5), stride=(1, 1), padding=(2, 2), groups=1344, bias=False)
          (1): BatchNorm2d(1344, eps=0.001, momentum=0.01, affine=True, track_running_stats=True)
          (2): SiLU(inplace=True)
        )
        (2): SqueezeExcitation(
          (avgpool): AdaptiveAvgPool2d(output_size=1)
          (fc1): Conv2d(1344, 56, kernel_size=(1, 1), stride=(1, 1))
          (fc2): Conv2d(56, 1344, kernel_size=(1, 1), stride=(1, 1))
          (activation): SiLU(inplace=True)
          (scale_activation): Sigmoid()
        )
        (3): ConvNormActivation(
          (0): Conv2d(1344, 224, kernel_size=(1, 1), stride=(1, 1), bias=False)
          (1): BatchNorm2d(224, eps=0.001, momentum=0.01, affine=True, track_running_stats=True)
        )
      )
      (stochastic_depth): StochasticDepth(p=0.11636363636363636, mode=row)
    )
    (5): MBConv(
      (block): Sequential(
        (0): ConvNormActivation(
          (0): Conv2d(224, 1344, kernel_size=(1, 1), stride=(1, 1), bias=False)
          (1): BatchNorm2d(1344, eps=0.001, momentum=0.01, affine=True, track_running_stats=True)
          (2): SiLU(inplace=True)
        )
        (1): ConvNormActivation(
          (0): Conv2d(1344, 1344, kernel_size=(5, 5), stride=(1, 1), padding=(2, 2), groups=1344, bias=False)
          (1): BatchNorm2d(1344, eps=0.001, momentum=0.01, affine=True, track_running_stats=True)
          (2): SiLU(inplace=True)
        )
        (2): SqueezeExcitation(
          (avgpool): AdaptiveAvgPool2d(output_size=1)
          (fc1): Conv2d(1344, 56, kernel_size=(1, 1), stride=(1, 1))
          (fc2): Conv2d(56, 1344, kernel_size=(1, 1), stride=(1, 1))
          (activation): SiLU(inplace=True)
          (scale_activation): Sigmoid()
        )
        (3): ConvNormActivation(
          (0): Conv2d(1344, 224, kernel_size=(1, 1), stride=(1, 1), bias=False)
          (1): BatchNorm2d(224, eps=0.001, momentum=0.01, affine=True, track_running_stats=True)
        )
      )
      (stochastic_depth): StochasticDepth(p=0.12000000000000001, mode=row)
    )
    (6): MBConv(
      (block): Sequential(
        (0): ConvNormActivation(
          (0): Conv2d(224, 1344, kernel_size=(1, 1), stride=(1, 1), bias=False)
          (1): BatchNorm2d(1344, eps=0.001, momentum=0.01, affine=True, track_running_stats=True)
          (2): SiLU(inplace=True)
        )
        (1): ConvNormActivation(
          (0): Conv2d(1344, 1344, kernel_size=(5, 5), stride=(1, 1), padding=(2, 2), groups=1344, bias=False)
          (1): BatchNorm2d(1344, eps=0.001, momentum=0.01, affine=True, track_running_stats=True)
          (2): SiLU(inplace=True)
        )
        (2): SqueezeExcitation(
          (avgpool): AdaptiveAvgPool2d(output_size=1)
          (fc1): Conv2d(1344, 56, kernel_size=(1, 1), stride=(1, 1))
          (fc2): Conv2d(56, 1344, kernel_size=(1, 1), stride=(1, 1))
          (activation): SiLU(inplace=True)
          (scale_activation): Sigmoid()
        )
        (3): ConvNormActivation(
          (0): Conv2d(1344, 224, kernel_size=(1, 1), stride=(1, 1), bias=False)
          (1): BatchNorm2d(224, eps=0.001, momentum=0.01, affine=True, track_running_stats=True)
        )
      )
      (stochastic_depth): StochasticDepth(p=0.12363636363636366, mode=row)
    )
    (7): MBConv(
      (block): Sequential(
        (0): ConvNormActivation(
          (0): Conv2d(224, 1344, kernel_size=(1, 1), stride=(1, 1), bias=False)
          (1): BatchNorm2d(1344, eps=0.001, momentum=0.01, affine=True, track_running_stats=True)
          (2): SiLU(inplace=True)
        )
        (1): ConvNormActivation(
          (0): Conv2d(1344, 1344, kernel_size=(5, 5), stride=(1, 1), padding=(2, 2), groups=1344, bias=False)
          (1): BatchNorm2d(1344, eps=0.001, momentum=0.01, affine=True, track_running_stats=True)
          (2): SiLU(inplace=True)
        )
        (2): SqueezeExcitation(
          (avgpool): AdaptiveAvgPool2d(output_size=1)
          (fc1): Conv2d(1344, 56, kernel_size=(1, 1), stride=(1, 1))
          (fc2): Conv2d(56, 1344, kernel_size=(1, 1), stride=(1, 1))
          (activation): SiLU(inplace=True)
          (scale_activation): Sigmoid()
        )
        (3): ConvNormActivation(
          (0): Conv2d(1344, 224, kernel_size=(1, 1), stride=(1, 1), bias=False)
          (1): BatchNorm2d(224, eps=0.001, momentum=0.01, affine=True, track_running_stats=True)
        )
      )
      (stochastic_depth): StochasticDepth(p=0.12727272727272726, mode=row)
    )
    (8): MBConv(
      (block): Sequential(
        (0): ConvNormActivation(
          (0): Conv2d(224, 1344, kernel_size=(1, 1), stride=(1, 1), bias=False)
          (1): BatchNorm2d(1344, eps=0.001, momentum=0.01, affine=True, track_running_stats=True)
          (2): SiLU(inplace=True)
        )
        (1): ConvNormActivation(
          (0): Conv2d(1344, 1344, kernel_size=(5, 5), stride=(1, 1), padding=(2, 2), groups=1344, bias=False)
          (1): BatchNorm2d(1344, eps=0.001, momentum=0.01, affine=True, track_running_stats=True)
          (2): SiLU(inplace=True)
        )
        (2): SqueezeExcitation(
          (avgpool): AdaptiveAvgPool2d(output_size=1)
          (fc1): Conv2d(1344, 56, kernel_size=(1, 1), stride=(1, 1))
          (fc2): Conv2d(56, 1344, kernel_size=(1, 1), stride=(1, 1))
          (activation): SiLU(inplace=True)
          (scale_activation): Sigmoid()
        )
        (3): ConvNormActivation(
          (0): Conv2d(1344, 224, kernel_size=(1, 1), stride=(1, 1), bias=False)
          (1): BatchNorm2d(224, eps=0.001, momentum=0.01, affine=True, track_running_stats=True)
        )
      )
      (stochastic_depth): StochasticDepth(p=0.13090909090909092, mode=row)
    )
    (9): MBConv(
      (block): Sequential(
        (0): ConvNormActivation(
          (0): Conv2d(224, 1344, kernel_size=(1, 1), stride=(1, 1), bias=False)
          (1): BatchNorm2d(1344, eps=0.001, momentum=0.01, affine=True, track_running_stats=True)
          (2): SiLU(inplace=True)
        )
        (1): ConvNormActivation(
          (0): Conv2d(1344, 1344, kernel_size=(5, 5), stride=(1, 1), padding=(2, 2), groups=1344, bias=False)
          (1): BatchNorm2d(1344, eps=0.001, momentum=0.01, affine=True, track_running_stats=True)
          (2): SiLU(inplace=True)
        )
        (2): SqueezeExcitation(
          (avgpool): AdaptiveAvgPool2d(output_size=1)
          (fc1): Conv2d(1344, 56, kernel_size=(1, 1), stride=(1, 1))
          (fc2): Conv2d(56, 1344, kernel_size=(1, 1), stride=(1, 1))
          (activation): SiLU(inplace=True)
          (scale_activation): Sigmoid()
        )
        (3): ConvNormActivation(
          (0): Conv2d(1344, 224, kernel_size=(1, 1), stride=(1, 1), bias=False)
          (1): BatchNorm2d(224, eps=0.001, momentum=0.01, affine=True, track_running_stats=True)
        )
      )
      (stochastic_depth): StochasticDepth(p=0.13454545454545455, mode=row)
    )
  )
  (6): Sequential(
    (0): MBConv(
      (block): Sequential(
        (0): ConvNormActivation(
          (0): Conv2d(224, 1344, kernel_size=(1, 1), stride=(1, 1), bias=False)
          (1): BatchNorm2d(1344, eps=0.001, momentum=0.01, affine=True, track_running_stats=True)
          (2): SiLU(inplace=True)
        )
        (1): ConvNormActivation(
          (0): Conv2d(1344, 1344, kernel_size=(5, 5), stride=(2, 2), padding=(2, 2), groups=1344, bias=False)
          (1): BatchNorm2d(1344, eps=0.001, momentum=0.01, affine=True, track_running_stats=True)
          (2): SiLU(inplace=True)
        )
        (2): SqueezeExcitation(
          (avgpool): AdaptiveAvgPool2d(output_size=1)
          (fc1): Conv2d(1344, 56, kernel_size=(1, 1), stride=(1, 1))
          (fc2): Conv2d(56, 1344, kernel_size=(1, 1), stride=(1, 1))
          (activation): SiLU(inplace=True)
          (scale_activation): Sigmoid()
        )
        (3): ConvNormActivation(
          (0): Conv2d(1344, 384, kernel_size=(1, 1), stride=(1, 1), bias=False)
          (1): BatchNorm2d(384, eps=0.001, momentum=0.01, affine=True, track_running_stats=True)
        )
      )
      (stochastic_depth): StochasticDepth(p=0.13818181818181818, mode=row)
    )
    (1): MBConv(
      (block): Sequential(
        (0): ConvNormActivation(
          (0): Conv2d(384, 2304, kernel_size=(1, 1), stride=(1, 1), bias=False)
          (1): BatchNorm2d(2304, eps=0.001, momentum=0.01, affine=True, track_running_stats=True)
          (2): SiLU(inplace=True)
        )
        (1): ConvNormActivation(
          (0): Conv2d(2304, 2304, kernel_size=(5, 5), stride=(1, 1), padding=(2, 2), groups=2304, bias=False)
          (1): BatchNorm2d(2304, eps=0.001, momentum=0.01, affine=True, track_running_stats=True)
          (2): SiLU(inplace=True)
        )
        (2): SqueezeExcitation(
          (avgpool): AdaptiveAvgPool2d(output_size=1)
          (fc1): Conv2d(2304, 96, kernel_size=(1, 1), stride=(1, 1))
          (fc2): Conv2d(96, 2304, kernel_size=(1, 1), stride=(1, 1))
          (activation): SiLU(inplace=True)
          (scale_activation): Sigmoid()
        )
        (3): ConvNormActivation(
          (0): Conv2d(2304, 384, kernel_size=(1, 1), stride=(1, 1), bias=False)
          (1): BatchNorm2d(384, eps=0.001, momentum=0.01, affine=True, track_running_stats=True)
        )
      )
      (stochastic_depth): StochasticDepth(p=0.14181818181818184, mode=row)
    )
    (2): MBConv(
      (block): Sequential(
        (0): ConvNormActivation(
          (0): Conv2d(384, 2304, kernel_size=(1, 1), stride=(1, 1), bias=False)
          (1): BatchNorm2d(2304, eps=0.001, momentum=0.01, affine=True, track_running_stats=True)
          (2): SiLU(inplace=True)
        )
        (1): ConvNormActivation(
          (0): Conv2d(2304, 2304, kernel_size=(5, 5), stride=(1, 1), padding=(2, 2), groups=2304, bias=False)
          (1): BatchNorm2d(2304, eps=0.001, momentum=0.01, affine=True, track_running_stats=True)
          (2): SiLU(inplace=True)
        )
        (2): SqueezeExcitation(
          (avgpool): AdaptiveAvgPool2d(output_size=1)
          (fc1): Conv2d(2304, 96, kernel_size=(1, 1), stride=(1, 1))
          (fc2): Conv2d(96, 2304, kernel_size=(1, 1), stride=(1, 1))
          (activation): SiLU(inplace=True)
          (scale_activation): Sigmoid()
        )
        (3): ConvNormActivation(
          (0): Conv2d(2304, 384, kernel_size=(1, 1), stride=(1, 1), bias=False)
          (1): BatchNorm2d(384, eps=0.001, momentum=0.01, affine=True, track_running_stats=True)
        )
      )
      (stochastic_depth): StochasticDepth(p=0.14545454545454545, mode=row)
    )
    (3): MBConv(
      (block): Sequential(
        (0): ConvNormActivation(
          (0): Conv2d(384, 2304, kernel_size=(1, 1), stride=(1, 1), bias=False)
          (1): BatchNorm2d(2304, eps=0.001, momentum=0.01, affine=True, track_running_stats=True)
          (2): SiLU(inplace=True)
        )
        (1): ConvNormActivation(
          (0): Conv2d(2304, 2304, kernel_size=(5, 5), stride=(1, 1), padding=(2, 2), groups=2304, bias=False)
          (1): BatchNorm2d(2304, eps=0.001, momentum=0.01, affine=True, track_running_stats=True)
          (2): SiLU(inplace=True)
        )
        (2): SqueezeExcitation(
          (avgpool): AdaptiveAvgPool2d(output_size=1)
          (fc1): Conv2d(2304, 96, kernel_size=(1, 1), stride=(1, 1))
          (fc2): Conv2d(96, 2304, kernel_size=(1, 1), stride=(1, 1))
          (activation): SiLU(inplace=True)
          (scale_activation): Sigmoid()
        )
        (3): ConvNormActivation(
          (0): Conv2d(2304, 384, kernel_size=(1, 1), stride=(1, 1), bias=False)
          (1): BatchNorm2d(384, eps=0.001, momentum=0.01, affine=True, track_running_stats=True)
        )
      )
      (stochastic_depth): StochasticDepth(p=0.1490909090909091, mode=row)
    )
    (4): MBConv(
      (block): Sequential(
        (0): ConvNormActivation(
          (0): Conv2d(384, 2304, kernel_size=(1, 1), stride=(1, 1), bias=False)
          (1): BatchNorm2d(2304, eps=0.001, momentum=0.01, affine=True, track_running_stats=True)
          (2): SiLU(inplace=True)
        )
        (1): ConvNormActivation(
          (0): Conv2d(2304, 2304, kernel_size=(5, 5), stride=(1, 1), padding=(2, 2), groups=2304, bias=False)
          (1): BatchNorm2d(2304, eps=0.001, momentum=0.01, affine=True, track_running_stats=True)
          (2): SiLU(inplace=True)
        )
        (2): SqueezeExcitation(
          (avgpool): AdaptiveAvgPool2d(output_size=1)
          (fc1): Conv2d(2304, 96, kernel_size=(1, 1), stride=(1, 1))
          (fc2): Conv2d(96, 2304, kernel_size=(1, 1), stride=(1, 1))
          (activation): SiLU(inplace=True)
          (scale_activation): Sigmoid()
        )
        (3): ConvNormActivation(
          (0): Conv2d(2304, 384, kernel_size=(1, 1), stride=(1, 1), bias=False)
          (1): BatchNorm2d(384, eps=0.001, momentum=0.01, affine=True, track_running_stats=True)
        )
      )
      (stochastic_depth): StochasticDepth(p=0.15272727272727274, mode=row)
    )
    (5): MBConv(
      (block): Sequential(
        (0): ConvNormActivation(
          (0): Conv2d(384, 2304, kernel_size=(1, 1), stride=(1, 1), bias=False)
          (1): BatchNorm2d(2304, eps=0.001, momentum=0.01, affine=True, track_running_stats=True)
          (2): SiLU(inplace=True)
        )
        (1): ConvNormActivation(
          (0): Conv2d(2304, 2304, kernel_size=(5, 5), stride=(1, 1), padding=(2, 2), groups=2304, bias=False)
          (1): BatchNorm2d(2304, eps=0.001, momentum=0.01, affine=True, track_running_stats=True)
          (2): SiLU(inplace=True)
        )
        (2): SqueezeExcitation(
          (avgpool): AdaptiveAvgPool2d(output_size=1)
          (fc1): Conv2d(2304, 96, kernel_size=(1, 1), stride=(1, 1))
          (fc2): Conv2d(96, 2304, kernel_size=(1, 1), stride=(1, 1))
          (activation): SiLU(inplace=True)
          (scale_activation): Sigmoid()
        )
        (3): ConvNormActivation(
          (0): Conv2d(2304, 384, kernel_size=(1, 1), stride=(1, 1), bias=False)
          (1): BatchNorm2d(384, eps=0.001, momentum=0.01, affine=True, track_running_stats=True)
        )
      )
      (stochastic_depth): StochasticDepth(p=0.15636363636363634, mode=row)
    )
    (6): MBConv(
      (block): Sequential(
        (0): ConvNormActivation(
          (0): Conv2d(384, 2304, kernel_size=(1, 1), stride=(1, 1), bias=False)
          (1): BatchNorm2d(2304, eps=0.001, momentum=0.01, affine=True, track_running_stats=True)
          (2): SiLU(inplace=True)
        )
        (1): ConvNormActivation(
          (0): Conv2d(2304, 2304, kernel_size=(5, 5), stride=(1, 1), padding=(2, 2), groups=2304, bias=False)
          (1): BatchNorm2d(2304, eps=0.001, momentum=0.01, affine=True, track_running_stats=True)
          (2): SiLU(inplace=True)
        )
        (2): SqueezeExcitation(
          (avgpool): AdaptiveAvgPool2d(output_size=1)
          (fc1): Conv2d(2304, 96, kernel_size=(1, 1), stride=(1, 1))
          (fc2): Conv2d(96, 2304, kernel_size=(1, 1), stride=(1, 1))
          (activation): SiLU(inplace=True)
          (scale_activation): Sigmoid()
        )
        (3): ConvNormActivation(
          (0): Conv2d(2304, 384, kernel_size=(1, 1), stride=(1, 1), bias=False)
          (1): BatchNorm2d(384, eps=0.001, momentum=0.01, affine=True, track_running_stats=True)
        )
      )
      (stochastic_depth): StochasticDepth(p=0.16, mode=row)
    )
    (7): MBConv(
      (block): Sequential(
        (0): ConvNormActivation(
          (0): Conv2d(384, 2304, kernel_size=(1, 1), stride=(1, 1), bias=False)
          (1): BatchNorm2d(2304, eps=0.001, momentum=0.01, affine=True, track_running_stats=True)
          (2): SiLU(inplace=True)
        )
        (1): ConvNormActivation(
          (0): Conv2d(2304, 2304, kernel_size=(5, 5), stride=(1, 1), padding=(2, 2), groups=2304, bias=False)
          (1): BatchNorm2d(2304, eps=0.001, momentum=0.01, affine=True, track_running_stats=True)
          (2): SiLU(inplace=True)
        )
        (2): SqueezeExcitation(
          (avgpool): AdaptiveAvgPool2d(output_size=1)
          (fc1): Conv2d(2304, 96, kernel_size=(1, 1), stride=(1, 1))
          (fc2): Conv2d(96, 2304, kernel_size=(1, 1), stride=(1, 1))
          (activation): SiLU(inplace=True)
          (scale_activation): Sigmoid()
        )
        (3): ConvNormActivation(
          (0): Conv2d(2304, 384, kernel_size=(1, 1), stride=(1, 1), bias=False)
          (1): BatchNorm2d(384, eps=0.001, momentum=0.01, affine=True, track_running_stats=True)
        )
      )
      (stochastic_depth): StochasticDepth(p=0.16363636363636364, mode=row)
    )
    (8): MBConv(
      (block): Sequential(
        (0): ConvNormActivation(
          (0): Conv2d(384, 2304, kernel_size=(1, 1), stride=(1, 1), bias=False)
          (1): BatchNorm2d(2304, eps=0.001, momentum=0.01, affine=True, track_running_stats=True)
          (2): SiLU(inplace=True)
        )
        (1): ConvNormActivation(
          (0): Conv2d(2304, 2304, kernel_size=(5, 5), stride=(1, 1), padding=(2, 2), groups=2304, bias=False)
          (1): BatchNorm2d(2304, eps=0.001, momentum=0.01, affine=True, track_running_stats=True)
          (2): SiLU(inplace=True)
        )
        (2): SqueezeExcitation(
          (avgpool): AdaptiveAvgPool2d(output_size=1)
          (fc1): Conv2d(2304, 96, kernel_size=(1, 1), stride=(1, 1))
          (fc2): Conv2d(96, 2304, kernel_size=(1, 1), stride=(1, 1))
          (activation): SiLU(inplace=True)
          (scale_activation): Sigmoid()
        )
        (3): ConvNormActivation(
          (0): Conv2d(2304, 384, kernel_size=(1, 1), stride=(1, 1), bias=False)
          (1): BatchNorm2d(384, eps=0.001, momentum=0.01, affine=True, track_running_stats=True)
        )
      )
      (stochastic_depth): StochasticDepth(p=0.1672727272727273, mode=row)
    )
    (9): MBConv(
      (block): Sequential(
        (0): ConvNormActivation(
          (0): Conv2d(384, 2304, kernel_size=(1, 1), stride=(1, 1), bias=False)
          (1): BatchNorm2d(2304, eps=0.001, momentum=0.01, affine=True, track_running_stats=True)
          (2): SiLU(inplace=True)
        )
        (1): ConvNormActivation(
          (0): Conv2d(2304, 2304, kernel_size=(5, 5), stride=(1, 1), padding=(2, 2), groups=2304, bias=False)
          (1): BatchNorm2d(2304, eps=0.001, momentum=0.01, affine=True, track_running_stats=True)
          (2): SiLU(inplace=True)
        )
        (2): SqueezeExcitation(
          (avgpool): AdaptiveAvgPool2d(output_size=1)
          (fc1): Conv2d(2304, 96, kernel_size=(1, 1), stride=(1, 1))
          (fc2): Conv2d(96, 2304, kernel_size=(1, 1), stride=(1, 1))
          (activation): SiLU(inplace=True)
          (scale_activation): Sigmoid()
        )
        (3): ConvNormActivation(
          (0): Conv2d(2304, 384, kernel_size=(1, 1), stride=(1, 1), bias=False)
          (1): BatchNorm2d(384, eps=0.001, momentum=0.01, affine=True, track_running_stats=True)
        )
      )
      (stochastic_depth): StochasticDepth(p=0.17090909090909093, mode=row)
    )
    (10): MBConv(
      (block): Sequential(
        (0): ConvNormActivation(
          (0): Conv2d(384, 2304, kernel_size=(1, 1), stride=(1, 1), bias=False)
          (1): BatchNorm2d(2304, eps=0.001, momentum=0.01, affine=True, track_running_stats=True)
          (2): SiLU(inplace=True)
        )
        (1): ConvNormActivation(
          (0): Conv2d(2304, 2304, kernel_size=(5, 5), stride=(1, 1), padding=(2, 2), groups=2304, bias=False)
          (1): BatchNorm2d(2304, eps=0.001, momentum=0.01, affine=True, track_running_stats=True)
          (2): SiLU(inplace=True)
        )
        (2): SqueezeExcitation(
          (avgpool): AdaptiveAvgPool2d(output_size=1)
          (fc1): Conv2d(2304, 96, kernel_size=(1, 1), stride=(1, 1))
          (fc2): Conv2d(96, 2304, kernel_size=(1, 1), stride=(1, 1))
          (activation): SiLU(inplace=True)
          (scale_activation): Sigmoid()
        )
        (3): ConvNormActivation(
          (0): Conv2d(2304, 384, kernel_size=(1, 1), stride=(1, 1), bias=False)
          (1): BatchNorm2d(384, eps=0.001, momentum=0.01, affine=True, track_running_stats=True)
        )
      )
      (stochastic_depth): StochasticDepth(p=0.17454545454545456, mode=row)
    )
    (11): MBConv(
      (block): Sequential(
        (0): ConvNormActivation(
          (0): Conv2d(384, 2304, kernel_size=(1, 1), stride=(1, 1), bias=False)
          (1): BatchNorm2d(2304, eps=0.001, momentum=0.01, affine=True, track_running_stats=True)
          (2): SiLU(inplace=True)
        )
        (1): ConvNormActivation(
          (0): Conv2d(2304, 2304, kernel_size=(5, 5), stride=(1, 1), padding=(2, 2), groups=2304, bias=False)
          (1): BatchNorm2d(2304, eps=0.001, momentum=0.01, affine=True, track_running_stats=True)
          (2): SiLU(inplace=True)
        )
        (2): SqueezeExcitation(
          (avgpool): AdaptiveAvgPool2d(output_size=1)
          (fc1): Conv2d(2304, 96, kernel_size=(1, 1), stride=(1, 1))
          (fc2): Conv2d(96, 2304, kernel_size=(1, 1), stride=(1, 1))
          (activation): SiLU(inplace=True)
          (scale_activation): Sigmoid()
        )
        (3): ConvNormActivation(
          (0): Conv2d(2304, 384, kernel_size=(1, 1), stride=(1, 1), bias=False)
          (1): BatchNorm2d(384, eps=0.001, momentum=0.01, affine=True, track_running_stats=True)
        )
      )
      (stochastic_depth): StochasticDepth(p=0.1781818181818182, mode=row)
    )
    (12): MBConv(
      (block): Sequential(
        (0): ConvNormActivation(
          (0): Conv2d(384, 2304, kernel_size=(1, 1), stride=(1, 1), bias=False)
          (1): BatchNorm2d(2304, eps=0.001, momentum=0.01, affine=True, track_running_stats=True)
          (2): SiLU(inplace=True)
        )
        (1): ConvNormActivation(
          (0): Conv2d(2304, 2304, kernel_size=(5, 5), stride=(1, 1), padding=(2, 2), groups=2304, bias=False)
          (1): BatchNorm2d(2304, eps=0.001, momentum=0.01, affine=True, track_running_stats=True)
          (2): SiLU(inplace=True)
        )
        (2): SqueezeExcitation(
          (avgpool): AdaptiveAvgPool2d(output_size=1)
          (fc1): Conv2d(2304, 96, kernel_size=(1, 1), stride=(1, 1))
          (fc2): Conv2d(96, 2304, kernel_size=(1, 1), stride=(1, 1))
          (activation): SiLU(inplace=True)
          (scale_activation): Sigmoid()
        )
        (3): ConvNormActivation(
          (0): Conv2d(2304, 384, kernel_size=(1, 1), stride=(1, 1), bias=False)
          (1): BatchNorm2d(384, eps=0.001, momentum=0.01, affine=True, track_running_stats=True)
        )
      )
      (stochastic_depth): StochasticDepth(p=0.18181818181818182, mode=row)
    )
  )
  (7): Sequential(
    (0): MBConv(
      (block): Sequential(
        (0): ConvNormActivation(
          (0): Conv2d(384, 2304, kernel_size=(1, 1), stride=(1, 1), bias=False)
          (1): BatchNorm2d(2304, eps=0.001, momentum=0.01, affine=True, track_running_stats=True)
          (2): SiLU(inplace=True)
        )
        (1): ConvNormActivation(
          (0): Conv2d(2304, 2304, kernel_size=(3, 3), stride=(1, 1), padding=(1, 1), groups=2304, bias=False)
          (1): BatchNorm2d(2304, eps=0.001, momentum=0.01, affine=True, track_running_stats=True)
          (2): SiLU(inplace=True)
        )
        (2): SqueezeExcitation(
          (avgpool): AdaptiveAvgPool2d(output_size=1)
          (fc1): Conv2d(2304, 96, kernel_size=(1, 1), stride=(1, 1))
          (fc2): Conv2d(96, 2304, kernel_size=(1, 1), stride=(1, 1))
          (activation): SiLU(inplace=True)
          (scale_activation): Sigmoid()
        )
        (3): ConvNormActivation(
          (0): Conv2d(2304, 640, kernel_size=(1, 1), stride=(1, 1), bias=False)
          (1): BatchNorm2d(640, eps=0.001, momentum=0.01, affine=True, track_running_stats=True)
        )
      )
      (stochastic_depth): StochasticDepth(p=0.18545454545454548, mode=row)
    )
    (1): MBConv(
      (block): Sequential(
        (0): ConvNormActivation(
          (0): Conv2d(640, 3840, kernel_size=(1, 1), stride=(1, 1), bias=False)
          (1): BatchNorm2d(3840, eps=0.001, momentum=0.01, affine=True, track_running_stats=True)
          (2): SiLU(inplace=True)
        )
        (1): ConvNormActivation(
          (0): Conv2d(3840, 3840, kernel_size=(3, 3), stride=(1, 1), padding=(1, 1), groups=3840, bias=False)
          (1): BatchNorm2d(3840, eps=0.001, momentum=0.01, affine=True, track_running_stats=True)
          (2): SiLU(inplace=True)
        )
        (2): SqueezeExcitation(
          (avgpool): AdaptiveAvgPool2d(output_size=1)
          (fc1): Conv2d(3840, 160, kernel_size=(1, 1), stride=(1, 1))
          (fc2): Conv2d(160, 3840, kernel_size=(1, 1), stride=(1, 1))
          (activation): SiLU(inplace=True)
          (scale_activation): Sigmoid()
        )
        (3): ConvNormActivation(
          (0): Conv2d(3840, 640, kernel_size=(1, 1), stride=(1, 1), bias=False)
          (1): BatchNorm2d(640, eps=0.001, momentum=0.01, affine=True, track_running_stats=True)
        )
      )
      (stochastic_depth): StochasticDepth(p=0.1890909090909091, mode=row)
    )
    (2): MBConv(
      (block): Sequential(
        (0): ConvNormActivation(
          (0): Conv2d(640, 3840, kernel_size=(1, 1), stride=(1, 1), bias=False)
          (1): BatchNorm2d(3840, eps=0.001, momentum=0.01, affine=True, track_running_stats=True)
          (2): SiLU(inplace=True)
        )
        (1): ConvNormActivation(
          (0): Conv2d(3840, 3840, kernel_size=(3, 3), stride=(1, 1), padding=(1, 1), groups=3840, bias=False)
          (1): BatchNorm2d(3840, eps=0.001, momentum=0.01, affine=True, track_running_stats=True)
          (2): SiLU(inplace=True)
        )
        (2): SqueezeExcitation(
          (avgpool): AdaptiveAvgPool2d(output_size=1)
          (fc1): Conv2d(3840, 160, kernel_size=(1, 1), stride=(1, 1))
          (fc2): Conv2d(160, 3840, kernel_size=(1, 1), stride=(1, 1))
          (activation): SiLU(inplace=True)
          (scale_activation): Sigmoid()
        )
        (3): ConvNormActivation(
          (0): Conv2d(3840, 640, kernel_size=(1, 1), stride=(1, 1), bias=False)
          (1): BatchNorm2d(640, eps=0.001, momentum=0.01, affine=True, track_running_stats=True)
        )
      )
      (stochastic_depth): StochasticDepth(p=0.19272727272727275, mode=row)
    )
    (3): MBConv(
      (block): Sequential(
        (0): ConvNormActivation(
          (0): Conv2d(640, 3840, kernel_size=(1, 1), stride=(1, 1), bias=False)
          (1): BatchNorm2d(3840, eps=0.001, momentum=0.01, affine=True, track_running_stats=True)
          (2): SiLU(inplace=True)
        )
        (1): ConvNormActivation(
          (0): Conv2d(3840, 3840, kernel_size=(3, 3), stride=(1, 1), padding=(1, 1), groups=3840, bias=False)
          (1): BatchNorm2d(3840, eps=0.001, momentum=0.01, affine=True, track_running_stats=True)
          (2): SiLU(inplace=True)
        )
        (2): SqueezeExcitation(
          (avgpool): AdaptiveAvgPool2d(output_size=1)
          (fc1): Conv2d(3840, 160, kernel_size=(1, 1), stride=(1, 1))
          (fc2): Conv2d(160, 3840, kernel_size=(1, 1), stride=(1, 1))
          (activation): SiLU(inplace=True)
          (scale_activation): Sigmoid()
        )
        (3): ConvNormActivation(
          (0): Conv2d(3840, 640, kernel_size=(1, 1), stride=(1, 1), bias=False)
          (1): BatchNorm2d(640, eps=0.001, momentum=0.01, affine=True, track_running_stats=True)
        )
      )
      (stochastic_depth): StochasticDepth(p=0.19636363636363638, mode=row)
    )
  )
  (8): ConvNormActivation(
    (0): Conv2d(640, 2560, kernel_size=(1, 1), stride=(1, 1), bias=False)
    (1): BatchNorm2d(2560, eps=0.001, momentum=0.01, affine=True, track_running_stats=True)
    (2): SiLU(inplace=True)
  )
)
CIFAR10
RANDOM SEED 4666
EntropySampling
2
CIFAR10
RANDOM SEED 4666
EntropySampling
3
CIFAR10
RANDOM SEED 4666
EntropySampling
Sequential(
  (0): Dropout(p=0.5, inplace=True)
  (1): Linear(in_features=2560, out_features=1000, bias=True)
)
CIFAR10
RANDOM SEED 4666
EntropySampling
AdaptiveAvgPool2d(output_size=1)
CIFAR10
RANDOM SEED 4666
EntropySampling
Sequential(
  (0): ConvNormActivation(
    (0): Conv2d(3, 64, kernel_size=(3, 3), stride=(2, 2), padding=(1, 1), bias=False)
    (1): BatchNorm2d(64, eps=0.001, momentum=0.01, affine=True, track_running_stats=True)
    (2): SiLU(inplace=True)
  )
  (1): Sequential(
    (0): MBConv(
      (block): Sequential(
        (0): ConvNormActivation(
          (0): Conv2d(64, 64, kernel_size=(3, 3), stride=(1, 1), padding=(1, 1), groups=64, bias=False)
          (1): BatchNorm2d(64, eps=0.001, momentum=0.01, affine=True, track_running_stats=True)
          (2): SiLU(inplace=True)
        )
        (1): SqueezeExcitation(
          (avgpool): AdaptiveAvgPool2d(output_size=1)
          (fc1): Conv2d(64, 16, kernel_size=(1, 1), stride=(1, 1))
          (fc2): Conv2d(16, 64, kernel_size=(1, 1), stride=(1, 1))
          (activation): SiLU(inplace=True)
          (scale_activation): Sigmoid()
        )
        (2): ConvNormActivation(
          (0): Conv2d(64, 32, kernel_size=(1, 1), stride=(1, 1), bias=False)
          (1): BatchNorm2d(32, eps=0.001, momentum=0.01, affine=True, track_running_stats=True)
        )
      )
      (stochastic_depth): StochasticDepth(p=0.0, mode=row)
    )
    (1): MBConv(
      (block): Sequential(
        (0): ConvNormActivation(
          (0): Conv2d(32, 32, kernel_size=(3, 3), stride=(1, 1), padding=(1, 1), groups=32, bias=False)
          (1): BatchNorm2d(32, eps=0.001, momentum=0.01, affine=True, track_running_stats=True)
          (2): SiLU(inplace=True)
        )
        (1): SqueezeExcitation(
          (avgpool): AdaptiveAvgPool2d(output_size=1)
          (fc1): Conv2d(32, 8, kernel_size=(1, 1), stride=(1, 1))
          (fc2): Conv2d(8, 32, kernel_size=(1, 1), stride=(1, 1))
          (activation): SiLU(inplace=True)
          (scale_activation): Sigmoid()
        )
        (2): ConvNormActivation(
          (0): Conv2d(32, 32, kernel_size=(1, 1), stride=(1, 1), bias=False)
          (1): BatchNorm2d(32, eps=0.001, momentum=0.01, affine=True, track_running_stats=True)
        )
      )
      (stochastic_depth): StochasticDepth(p=0.0036363636363636364, mode=row)
    )
    (2): MBConv(
      (block): Sequential(
        (0): ConvNormActivation(
          (0): Conv2d(32, 32, kernel_size=(3, 3), stride=(1, 1), padding=(1, 1), groups=32, bias=False)
          (1): BatchNorm2d(32, eps=0.001, momentum=0.01, affine=True, track_running_stats=True)
          (2): SiLU(inplace=True)
        )
        (1): SqueezeExcitation(
          (avgpool): AdaptiveAvgPool2d(output_size=1)
          (fc1): Conv2d(32, 8, kernel_size=(1, 1), stride=(1, 1))
          (fc2): Conv2d(8, 32, kernel_size=(1, 1), stride=(1, 1))
          (activation): SiLU(inplace=True)
          (scale_activation): Sigmoid()
        )
        (2): ConvNormActivation(
          (0): Conv2d(32, 32, kernel_size=(1, 1), stride=(1, 1), bias=False)
          (1): BatchNorm2d(32, eps=0.001, momentum=0.01, affine=True, track_running_stats=True)
        )
      )
      (stochastic_depth): StochasticDepth(p=0.007272727272727273, mode=row)
    )
    (3): MBConv(
      (block): Sequential(
        (0): ConvNormActivation(
          (0): Conv2d(32, 32, kernel_size=(3, 3), stride=(1, 1), padding=(1, 1), groups=32, bias=False)
          (1): BatchNorm2d(32, eps=0.001, momentum=0.01, affine=True, track_running_stats=True)
          (2): SiLU(inplace=True)
        )
        (1): SqueezeExcitation(
          (avgpool): AdaptiveAvgPool2d(output_size=1)
          (fc1): Conv2d(32, 8, kernel_size=(1, 1), stride=(1, 1))
          (fc2): Conv2d(8, 32, kernel_size=(1, 1), stride=(1, 1))
          (activation): SiLU(inplace=True)
          (scale_activation): Sigmoid()
        )
        (2): ConvNormActivation(
          (0): Conv2d(32, 32, kernel_size=(1, 1), stride=(1, 1), bias=False)
          (1): BatchNorm2d(32, eps=0.001, momentum=0.01, affine=True, track_running_stats=True)
        )
      )
      (stochastic_depth): StochasticDepth(p=0.01090909090909091, mode=row)
    )
  )
  (2): Sequential(
    (0): MBConv(
      (block): Sequential(
        (0): ConvNormActivation(
          (0): Conv2d(32, 192, kernel_size=(1, 1), stride=(1, 1), bias=False)
          (1): BatchNorm2d(192, eps=0.001, momentum=0.01, affine=True, track_running_stats=True)
          (2): SiLU(inplace=True)
        )
        (1): ConvNormActivation(
          (0): Conv2d(192, 192, kernel_size=(3, 3), stride=(2, 2), padding=(1, 1), groups=192, bias=False)
          (1): BatchNorm2d(192, eps=0.001, momentum=0.01, affine=True, track_running_stats=True)
          (2): SiLU(inplace=True)
        )
        (2): SqueezeExcitation(
          (avgpool): AdaptiveAvgPool2d(output_size=1)
          (fc1): Conv2d(192, 8, kernel_size=(1, 1), stride=(1, 1))
          (fc2): Conv2d(8, 192, kernel_size=(1, 1), stride=(1, 1))
          (activation): SiLU(inplace=True)
          (scale_activation): Sigmoid()
        )
        (3): ConvNormActivation(
          (0): Conv2d(192, 48, kernel_size=(1, 1), stride=(1, 1), bias=False)
          (1): BatchNorm2d(48, eps=0.001, momentum=0.01, affine=True, track_running_stats=True)
        )
      )
      (stochastic_depth): StochasticDepth(p=0.014545454545454545, mode=row)
    )
    (1): MBConv(
      (block): Sequential(
        (0): ConvNormActivation(
          (0): Conv2d(48, 288, kernel_size=(1, 1), stride=(1, 1), bias=False)
          (1): BatchNorm2d(288, eps=0.001, momentum=0.01, affine=True, track_running_stats=True)
          (2): SiLU(inplace=True)
        )
        (1): ConvNormActivation(
          (0): Conv2d(288, 288, kernel_size=(3, 3), stride=(1, 1), padding=(1, 1), groups=288, bias=False)
          (1): BatchNorm2d(288, eps=0.001, momentum=0.01, affine=True, track_running_stats=True)
          (2): SiLU(inplace=True)
        )
        (2): SqueezeExcitation(
          (avgpool): AdaptiveAvgPool2d(output_size=1)
          (fc1): Conv2d(288, 12, kernel_size=(1, 1), stride=(1, 1))
          (fc2): Conv2d(12, 288, kernel_size=(1, 1), stride=(1, 1))
          (activation): SiLU(inplace=True)
          (scale_activation): Sigmoid()
        )
        (3): ConvNormActivation(
          (0): Conv2d(288, 48, kernel_size=(1, 1), stride=(1, 1), bias=False)
          (1): BatchNorm2d(48, eps=0.001, momentum=0.01, affine=True, track_running_stats=True)
        )
      )
      (stochastic_depth): StochasticDepth(p=0.01818181818181818, mode=row)
    )
    (2): MBConv(
      (block): Sequential(
        (0): ConvNormActivation(
          (0): Conv2d(48, 288, kernel_size=(1, 1), stride=(1, 1), bias=False)
          (1): BatchNorm2d(288, eps=0.001, momentum=0.01, affine=True, track_running_stats=True)
          (2): SiLU(inplace=True)
        )
        (1): ConvNormActivation(
          (0): Conv2d(288, 288, kernel_size=(3, 3), stride=(1, 1), padding=(1, 1), groups=288, bias=False)
          (1): BatchNorm2d(288, eps=0.001, momentum=0.01, affine=True, track_running_stats=True)
          (2): SiLU(inplace=True)
        )
        (2): SqueezeExcitation(
          (avgpool): AdaptiveAvgPool2d(output_size=1)
          (fc1): Conv2d(288, 12, kernel_size=(1, 1), stride=(1, 1))
          (fc2): Conv2d(12, 288, kernel_size=(1, 1), stride=(1, 1))
          (activation): SiLU(inplace=True)
          (scale_activation): Sigmoid()
        )
        (3): ConvNormActivation(
          (0): Conv2d(288, 48, kernel_size=(1, 1), stride=(1, 1), bias=False)
          (1): BatchNorm2d(48, eps=0.001, momentum=0.01, affine=True, track_running_stats=True)
        )
      )
      (stochastic_depth): StochasticDepth(p=0.02181818181818182, mode=row)
    )
    (3): MBConv(
      (block): Sequential(
        (0): ConvNormActivation(
          (0): Conv2d(48, 288, kernel_size=(1, 1), stride=(1, 1), bias=False)
          (1): BatchNorm2d(288, eps=0.001, momentum=0.01, affine=True, track_running_stats=True)
          (2): SiLU(inplace=True)
        )
        (1): ConvNormActivation(
          (0): Conv2d(288, 288, kernel_size=(3, 3), stride=(1, 1), padding=(1, 1), groups=288, bias=False)
          (1): BatchNorm2d(288, eps=0.001, momentum=0.01, affine=True, track_running_stats=True)
          (2): SiLU(inplace=True)
        )
        (2): SqueezeExcitation(
          (avgpool): AdaptiveAvgPool2d(output_size=1)
          (fc1): Conv2d(288, 12, kernel_size=(1, 1), stride=(1, 1))
          (fc2): Conv2d(12, 288, kernel_size=(1, 1), stride=(1, 1))
          (activation): SiLU(inplace=True)
          (scale_activation): Sigmoid()
        )
        (3): ConvNormActivation(
          (0): Conv2d(288, 48, kernel_size=(1, 1), stride=(1, 1), bias=False)
          (1): BatchNorm2d(48, eps=0.001, momentum=0.01, affine=True, track_running_stats=True)
        )
      )
      (stochastic_depth): StochasticDepth(p=0.025454545454545455, mode=row)
    )
    (4): MBConv(
      (block): Sequential(
        (0): ConvNormActivation(
          (0): Conv2d(48, 288, kernel_size=(1, 1), stride=(1, 1), bias=False)
          (1): BatchNorm2d(288, eps=0.001, momentum=0.01, affine=True, track_running_stats=True)
          (2): SiLU(inplace=True)
        )
        (1): ConvNormActivation(
          (0): Conv2d(288, 288, kernel_size=(3, 3), stride=(1, 1), padding=(1, 1), groups=288, bias=False)
          (1): BatchNorm2d(288, eps=0.001, momentum=0.01, affine=True, track_running_stats=True)
          (2): SiLU(inplace=True)
        )
        (2): SqueezeExcitation(
          (avgpool): AdaptiveAvgPool2d(output_size=1)
          (fc1): Conv2d(288, 12, kernel_size=(1, 1), stride=(1, 1))
          (fc2): Conv2d(12, 288, kernel_size=(1, 1), stride=(1, 1))
          (activation): SiLU(inplace=True)
          (scale_activation): Sigmoid()
        )
        (3): ConvNormActivation(
          (0): Conv2d(288, 48, kernel_size=(1, 1), stride=(1, 1), bias=False)
          (1): BatchNorm2d(48, eps=0.001, momentum=0.01, affine=True, track_running_stats=True)
        )
      )
      (stochastic_depth): StochasticDepth(p=0.02909090909090909, mode=row)
    )
    (5): MBConv(
      (block): Sequential(
        (0): ConvNormActivation(
          (0): Conv2d(48, 288, kernel_size=(1, 1), stride=(1, 1), bias=False)
          (1): BatchNorm2d(288, eps=0.001, momentum=0.01, affine=True, track_running_stats=True)
          (2): SiLU(inplace=True)
        )
        (1): ConvNormActivation(
          (0): Conv2d(288, 288, kernel_size=(3, 3), stride=(1, 1), padding=(1, 1), groups=288, bias=False)
          (1): BatchNorm2d(288, eps=0.001, momentum=0.01, affine=True, track_running_stats=True)
          (2): SiLU(inplace=True)
        )
        (2): SqueezeExcitation(
          (avgpool): AdaptiveAvgPool2d(output_size=1)
          (fc1): Conv2d(288, 12, kernel_size=(1, 1), stride=(1, 1))
          (fc2): Conv2d(12, 288, kernel_size=(1, 1), stride=(1, 1))
          (activation): SiLU(inplace=True)
          (scale_activation): Sigmoid()
        )
        (3): ConvNormActivation(
          (0): Conv2d(288, 48, kernel_size=(1, 1), stride=(1, 1), bias=False)
          (1): BatchNorm2d(48, eps=0.001, momentum=0.01, affine=True, track_running_stats=True)
        )
      )
      (stochastic_depth): StochasticDepth(p=0.03272727272727273, mode=row)
    )
    (6): MBConv(
      (block): Sequential(
        (0): ConvNormActivation(
          (0): Conv2d(48, 288, kernel_size=(1, 1), stride=(1, 1), bias=False)
          (1): BatchNorm2d(288, eps=0.001, momentum=0.01, affine=True, track_running_stats=True)
          (2): SiLU(inplace=True)
        )
        (1): ConvNormActivation(
          (0): Conv2d(288, 288, kernel_size=(3, 3), stride=(1, 1), padding=(1, 1), groups=288, bias=False)
          (1): BatchNorm2d(288, eps=0.001, momentum=0.01, affine=True, track_running_stats=True)
          (2): SiLU(inplace=True)
        )
        (2): SqueezeExcitation(
          (avgpool): AdaptiveAvgPool2d(output_size=1)
          (fc1): Conv2d(288, 12, kernel_size=(1, 1), stride=(1, 1))
          (fc2): Conv2d(12, 288, kernel_size=(1, 1), stride=(1, 1))
          (activation): SiLU(inplace=True)
          (scale_activation): Sigmoid()
        )
        (3): ConvNormActivation(
          (0): Conv2d(288, 48, kernel_size=(1, 1), stride=(1, 1), bias=False)
          (1): BatchNorm2d(48, eps=0.001, momentum=0.01, affine=True, track_running_stats=True)
        )
      )
      (stochastic_depth): StochasticDepth(p=0.03636363636363636, mode=row)
    )
  )
  (3): Sequential(
    (0): MBConv(
      (block): Sequential(
        (0): ConvNormActivation(
          (0): Conv2d(48, 288, kernel_size=(1, 1), stride=(1, 1), bias=False)
          (1): BatchNorm2d(288, eps=0.001, momentum=0.01, affine=True, track_running_stats=True)
          (2): SiLU(inplace=True)
        )
        (1): ConvNormActivation(
          (0): Conv2d(288, 288, kernel_size=(5, 5), stride=(2, 2), padding=(2, 2), groups=288, bias=False)
          (1): BatchNorm2d(288, eps=0.001, momentum=0.01, affine=True, track_running_stats=True)
          (2): SiLU(inplace=True)
        )
        (2): SqueezeExcitation(
          (avgpool): AdaptiveAvgPool2d(output_size=1)
          (fc1): Conv2d(288, 12, kernel_size=(1, 1), stride=(1, 1))
          (fc2): Conv2d(12, 288, kernel_size=(1, 1), stride=(1, 1))
          (activation): SiLU(inplace=True)
          (scale_activation): Sigmoid()
        )
        (3): ConvNormActivation(
          (0): Conv2d(288, 80, kernel_size=(1, 1), stride=(1, 1), bias=False)
          (1): BatchNorm2d(80, eps=0.001, momentum=0.01, affine=True, track_running_stats=True)
        )
      )
      (stochastic_depth): StochasticDepth(p=0.04, mode=row)
    )
    (1): MBConv(
      (block): Sequential(
        (0): ConvNormActivation(
          (0): Conv2d(80, 480, kernel_size=(1, 1), stride=(1, 1), bias=False)
          (1): BatchNorm2d(480, eps=0.001, momentum=0.01, affine=True, track_running_stats=True)
          (2): SiLU(inplace=True)
        )
        (1): ConvNormActivation(
          (0): Conv2d(480, 480, kernel_size=(5, 5), stride=(1, 1), padding=(2, 2), groups=480, bias=False)
          (1): BatchNorm2d(480, eps=0.001, momentum=0.01, affine=True, track_running_stats=True)
          (2): SiLU(inplace=True)
        )
        (2): SqueezeExcitation(
          (avgpool): AdaptiveAvgPool2d(output_size=1)
          (fc1): Conv2d(480, 20, kernel_size=(1, 1), stride=(1, 1))
          (fc2): Conv2d(20, 480, kernel_size=(1, 1), stride=(1, 1))
          (activation): SiLU(inplace=True)
          (scale_activation): Sigmoid()
        )
        (3): ConvNormActivation(
          (0): Conv2d(480, 80, kernel_size=(1, 1), stride=(1, 1), bias=False)
          (1): BatchNorm2d(80, eps=0.001, momentum=0.01, affine=True, track_running_stats=True)
        )
      )
      (stochastic_depth): StochasticDepth(p=0.04363636363636364, mode=row)
    )
…
            (activation): SiLU(inplace=True)
            (scale_activation): Sigmoid()
          )
          (3): ConvNormActivation(
            (0): Conv2d(480, 80, kernel_size=(1, 1), stride=(1, 1), bias=False)
            (1): BatchNorm2d(80, eps=0.001, momentum=0.01, affine=True, track_running_stats=True)
          )
        )
        (stochastic_depth): StochasticDepth(p=0.05454545454545454, mode=row)
      )
      (5): MBConv(
        (block): Sequential(
          (0): ConvNormActivation(
            (0): Conv2d(80, 480, kernel_size=(1, 1), stride=(1, 1), bias=False)
            (1): BatchNorm2d(480, eps=0.001, momentum=0.01, affine=True, track_running_stats=True)
            (2): SiLU(inplace=True)
          )
          (1): ConvNormActivation(
            (0): Conv2d(480, 480, kernel_size=(5, 5), stride=(1, 1), padding=(2, 2), groups=480, bias=False)
            (1): BatchNorm2d(480, eps=0.001, momentum=0.01, affine=True, track_running_stats=True)
            (2): SiLU(inplace=True)
          )
          (2): SqueezeExcitation(
            (avgpool): AdaptiveAvgPool2d(output_size=1)
            (fc1): Conv2d(480, 20, kernel_size=(1, 1), stride=(1, 1))
            (fc2): Conv2d(20, 480, kernel_size=(1, 1), stride=(1, 1))
            (activation): SiLU(inplace=True)
            (scale_activation): Sigmoid()
          )
          (3): ConvNormActivation(
            (0): Conv2d(480, 80, kernel_size=(1, 1), stride=(1, 1), bias=False)
            (1): BatchNorm2d(80, eps=0.001, momentum=0.01, affine=True, track_running_stats=True)
          )
        )
        (stochastic_depth): StochasticDepth(p=0.05818181818181818, mode=row)
      )
      (6): MBConv(
        (block): Sequential(
          (0): ConvNormActivation(
            (0): Conv2d(80, 480, kernel_size=(1, 1), stride=(1, 1), bias=False)
            (1): BatchNorm2d(480, eps=0.001, momentum=0.01, affine=True, track_running_stats=True)
            (2): SiLU(inplace=True)
          )
          (1): ConvNormActivation(
            (0): Conv2d(480, 480, kernel_size=(5, 5), stride=(1, 1), padding=(2, 2), groups=480, bias=False)
            (1): BatchNorm2d(480, eps=0.001, momentum=0.01, affine=True, track_running_stats=True)
            (2): SiLU(inplace=True)
          )
          (2): SqueezeExcitation(
            (avgpool): AdaptiveAvgPool2d(output_size=1)
            (fc1): Conv2d(480, 20, kernel_size=(1, 1), stride=(1, 1))
            (fc2): Conv2d(20, 480, kernel_size=(1, 1), stride=(1, 1))
            (activation): SiLU(inplace=True)
            (scale_activation): Sigmoid()
          )
          (3): ConvNormActivation(
            (0): Conv2d(480, 80, kernel_size=(1, 1), stride=(1, 1), bias=False)
            (1): BatchNorm2d(80, eps=0.001, momentum=0.01, affine=True, track_running_stats=True)
          )
        )
        (stochastic_depth): StochasticDepth(p=0.06181818181818183, mode=row)
      )
    )
    (4): Sequential(
      (0): MBConv(
        (block): Sequential(
          (0): ConvNormActivation(
            (0): Conv2d(80, 480, kernel_size=(1, 1), stride=(1, 1), bias=False)
            (1): BatchNorm2d(480, eps=0.001, momentum=0.01, affine=True, track_running_stats=True)
            (2): SiLU(inplace=True)
          )
          (1): ConvNormActivation(
            (0): Conv2d(480, 480, kernel_size=(3, 3), stride=(2, 2), padding=(1, 1), groups=480, bias=False)
            (1): BatchNorm2d(480, eps=0.001, momentum=0.01, affine=True, track_running_stats=True)
            (2): SiLU(inplace=True)
          )
          (2): SqueezeExcitation(
            (avgpool): AdaptiveAvgPool2d(output_size=1)
            (fc1): Conv2d(480, 20, kernel_size=(1, 1), stride=(1, 1))
            (fc2): Conv2d(20, 480, kernel_size=(1, 1), stride=(1, 1))
            (activation): SiLU(inplace=True)
            (scale_activation): Sigmoid()
          )
          (3): ConvNormActivation(
            (0): Conv2d(480, 160, kernel_size=(1, 1), stride=(1, 1), bias=False)
            (1): BatchNorm2d(160, eps=0.001, momentum=0.01, affine=True, track_running_stats=True)
          )
        )
        (stochastic_depth): StochasticDepth(p=0.06545454545454546, mode=row)
      )
      (1): MBConv(
        (block): Sequential(
          (0): ConvNormActivation(
            (0): Conv2d(160, 960, kernel_size=(1, 1), stride=(1, 1), bias=False)
            (1): BatchNorm2d(960, eps=0.001, momentum=0.01, affine=True, track_running_stats=True)
            (2): SiLU(inplace=True)
          )
          (1): ConvNormActivation(
            (0): Conv2d(960, 960, kernel_size=(3, 3), stride=(1, 1), padding=(1, 1), groups=960, bias=False)
            (1): BatchNorm2d(960, eps=0.001, momentum=0.01, affine=True, track_running_stats=True)
            (2): SiLU(inplace=True)
          )
          (2): SqueezeExcitation(
            (avgpool): AdaptiveAvgPool2d(output_size=1)
            (fc1): Conv2d(960, 40, kernel_size=(1, 1), stride=(1, 1))
            (fc2): Conv2d(40, 960, kernel_size=(1, 1), stride=(1, 1))
            (activation): SiLU(inplace=True)
            (scale_activation): Sigmoid()
          )
          (3): ConvNormActivation(
            (0): Conv2d(960, 160, kernel_size=(1, 1), stride=(1, 1), bias=False)
            (1): BatchNorm2d(160, eps=0.001, momentum=0.01, affine=True, track_running_stats=True)
          )
        )
        (stochastic_depth): StochasticDepth(p=0.06909090909090909, mode=row)
      )
      (2): MBConv(
        (block): Sequential(
          (0): ConvNormActivation(
            (0): Conv2d(160, 960, kernel_size=(1, 1), stride=(1, 1), bias=False)
            (1): BatchNorm2d(960, eps=0.001, momentum=0.01, affine=True, track_running_stats=True)
            (2): SiLU(inplace=True)
          )
          (1): ConvNormActivation(
            (0): Conv2d(960, 960, kernel_size=(3, 3), stride=(1, 1), padding=(1, 1), groups=960, bias=False)
            (1): BatchNorm2d(960, eps=0.001, momentum=0.01, affine=True, track_running_stats=True)
            (2): SiLU(inplace=True)
          )
          (2): SqueezeExcitation(
            (avgpool): AdaptiveAvgPool2d(output_size=1)
            (fc1): Conv2d(960, 40, kernel_size=(1, 1), stride=(1, 1))
            (fc2): Conv2d(40, 960, kernel_size=(1, 1), stride=(1, 1))
            (activation): SiLU(inplace=True)
            (scale_activation): Sigmoid()
          )
          (3): ConvNormActivation(
            (0): Conv2d(960, 160, kernel_size=(1, 1), stride=(1, 1), bias=False)
            (1): BatchNorm2d(160, eps=0.001, momentum=0.01, affine=True, track_running_stats=True)
          )
        )
        (stochastic_depth): StochasticDepth(p=0.07272727272727272, mode=row)
      )
      (3): MBConv(
        (block): Sequential(
          (0): ConvNormActivation(
            (0): Conv2d(160, 960, kernel_size=(1, 1), stride=(1, 1), bias=False)
            (1): BatchNorm2d(960, eps=0.001, momentum=0.01, affine=True, track_running_stats=True)
            (2): SiLU(inplace=True)
          )
          (1): ConvNormActivation(
            (0): Conv2d(960, 960, kernel_size=(3, 3), stride=(1, 1), padding=(1, 1), groups=960, bias=False)
            (1): BatchNorm2d(960, eps=0.001, momentum=0.01, affine=True, track_running_stats=True)
            (2): SiLU(inplace=True)
          )
          (2): SqueezeExcitation(
            (avgpool): AdaptiveAvgPool2d(output_size=1)
            (fc1): Conv2d(960, 40, kernel_size=(1, 1), stride=(1, 1))
            (fc2): Conv2d(40, 960, kernel_size=(1, 1), stride=(1, 1))
            (activation): SiLU(inplace=True)
            (scale_activation): Sigmoid()
          )
          (3): ConvNormActivation(
            (0): Conv2d(960, 160, kernel_size=(1, 1), stride=(1, 1), bias=False)
            (1): BatchNorm2d(160, eps=0.001, momentum=0.01, affine=True, track_running_stats=True)
          )
        )
        (stochastic_depth): StochasticDepth(p=0.07636363636363637, mode=row)
      )
      (4): MBConv(
        (block): Sequential(
          (0): ConvNormActivation(
            (0): Conv2d(160, 960, kernel_size=(1, 1), stride=(1, 1), bias=False)
            (1): BatchNorm2d(960, eps=0.001, momentum=0.01, affine=True, track_running_stats=True)
            (2): SiLU(inplace=True)
          )
          (1): ConvNormActivation(
            (0): Conv2d(960, 960, kernel_size=(3, 3), stride=(1, 1), padding=(1, 1), groups=960, bias=False)
            (1): BatchNorm2d(960, eps=0.001, momentum=0.01, affine=True, track_running_stats=True)
            (2): SiLU(inplace=True)
          )
          (2): SqueezeExcitation(
            (avgpool): AdaptiveAvgPool2d(output_size=1)
            (fc1): Conv2d(960, 40, kernel_size=(1, 1), stride=(1, 1))
            (fc2): Conv2d(40, 960, kernel_size=(1, 1), stride=(1, 1))
            (activation): SiLU(inplace=True)
            (scale_activation): Sigmoid()
          )
          (3): ConvNormActivation(
            (0): Conv2d(960, 160, kernel_size=(1, 1), stride=(1, 1), bias=False)
            (1): BatchNorm2d(160, eps=0.001, momentum=0.01, affine=True, track_running_stats=True)
          )
        )
        (stochastic_depth): StochasticDepth(p=0.08, mode=row)
      )
      (5): MBConv(
        (block): Sequential(
          (0): ConvNormActivation(
            (0): Conv2d(160, 960, kernel_size=(1, 1), stride=(1, 1), bias=False)
            (1): BatchNorm2d(960, eps=0.001, momentum=0.01, affine=True, track_running_stats=True)
            (2): SiLU(inplace=True)
          )
          (1): ConvNormActivation(
            (0): Conv2d(960, 960, kernel_size=(3, 3), stride=(1, 1), padding=(1, 1), groups=960, bias=False)
            (1): BatchNorm2d(960, eps=0.001, momentum=0.01, affine=True, track_running_stats=True)
            (2): SiLU(inplace=True)
          )
          (2): SqueezeExcitation(
            (avgpool): AdaptiveAvgPool2d(output_size=1)
            (fc1): Conv2d(960, 40, kernel_size=(1, 1), stride=(1, 1))
            (fc2): Conv2d(40, 960, kernel_size=(1, 1), stride=(1, 1))
            (activation): SiLU(inplace=True)
            (scale_activation): Sigmoid()
          )
          (3): ConvNormActivation(
            (0): Conv2d(960, 160, kernel_size=(1, 1), stride=(1, 1), bias=False)
            (1): BatchNorm2d(160, eps=0.001, momentum=0.01, affine=True, track_running_stats=True)
          )
        )
        (stochastic_depth): StochasticDepth(p=0.08363636363636365, mode=row)
      )
      (6): MBConv(
        (block): Sequential(
          (0): ConvNormActivation(
            (0): Conv2d(160, 960, kernel_size=(1, 1), stride=(1, 1), bias=False)
            (1): BatchNorm2d(960, eps=0.001, momentum=0.01, affine=True, track_running_stats=True)
            (2): SiLU(inplace=True)
          )
          (1): ConvNormActivation(
            (0): Conv2d(960, 960, kernel_size=(3, 3), stride=(1, 1), padding=(1, 1), groups=960, bias=False)
            (1): BatchNorm2d(960, eps=0.001, momentum=0.01, affine=True, track_running_stats=True)
            (2): SiLU(inplace=True)
          )
          (2): SqueezeExcitation(
            (avgpool): AdaptiveAvgPool2d(output_size=1)
            (fc1): Conv2d(960, 40, kernel_size=(1, 1), stride=(1, 1))
            (fc2): Conv2d(40, 960, kernel_size=(1, 1), stride=(1, 1))
            (activation): SiLU(inplace=True)
            (scale_activation): Sigmoid()
          )
          (3): ConvNormActivation(
            (0): Conv2d(960, 160, kernel_size=(1, 1), stride=(1, 1), bias=False)
            (1): BatchNorm2d(160, eps=0.001, momentum=0.01, affine=True, track_running_stats=True)
          )
        )
        (stochastic_depth): StochasticDepth(p=0.08727272727272728, mode=row)
      )
      (7): MBConv(
        (block): Sequential(
          (0): ConvNormActivation(
            (0): Conv2d(160, 960, kernel_size=(1, 1), stride=(1, 1), bias=False)
            (1): BatchNorm2d(960, eps=0.001, momentum=0.01, affine=True, track_running_stats=True)
            (2): SiLU(inplace=True)
          )
          (1): ConvNormActivation(
            (0): Conv2d(960, 960, kernel_size=(3, 3), stride=(1, 1), padding=(1, 1), groups=960, bias=False)
            (1): BatchNorm2d(960, eps=0.001, momentum=0.01, affine=True, track_running_stats=True)
            (2): SiLU(inplace=True)
          )
          (2): SqueezeExcitation(
            (avgpool): AdaptiveAvgPool2d(output_size=1)
            (fc1): Conv2d(960, 40, kernel_size=(1, 1), stride=(1, 1))
            (fc2): Conv2d(40, 960, kernel_size=(1, 1), stride=(1, 1))
            (activation): SiLU(inplace=True)
            (scale_activation): Sigmoid()
          )
          (3): ConvNormActivation(
            (0): Conv2d(960, 160, kernel_size=(1, 1), stride=(1, 1), bias=False)
            (1): BatchNorm2d(160, eps=0.001, momentum=0.01, affine=True, track_running_stats=True)
          )
        )
        (stochastic_depth): StochasticDepth(p=0.09090909090909091, mode=row)
      )
      (8): MBConv(
        (block): Sequential(
          (0): ConvNormActivation(
            (0): Conv2d(160, 960, kernel_size=(1, 1), stride=(1, 1), bias=False)
            (1): BatchNorm2d(960, eps=0.001, momentum=0.01, affine=True, track_running_stats=True)
            (2): SiLU(inplace=True)
          )
          (1): ConvNormActivation(
            (0): Conv2d(960, 960, kernel_size=(3, 3), stride=(1, 1), padding=(1, 1), groups=960, bias=False)
            (1): BatchNorm2d(960, eps=0.001, momentum=0.01, affine=True, track_running_stats=True)
            (2): SiLU(inplace=True)
          )
          (2): SqueezeExcitation(
            (avgpool): AdaptiveAvgPool2d(output_size=1)
            (fc1): Conv2d(960, 40, kernel_size=(1, 1), stride=(1, 1))
            (fc2): Conv2d(40, 960, kernel_size=(1, 1), stride=(1, 1))
            (activation): SiLU(inplace=True)
            (scale_activation): Sigmoid()
          )
          (3): ConvNormActivation(
            (0): Conv2d(960, 160, kernel_size=(1, 1), stride=(1, 1), bias=False)
            (1): BatchNorm2d(160, eps=0.001, momentum=0.01, affine=True, track_running_stats=True)
          )
        )
        (stochastic_depth): StochasticDepth(p=0.09454545454545454, mode=row)
      )
      (9): MBConv(
        (block): Sequential(
          (0): ConvNormActivation(
            (0): Conv2d(160, 960, kernel_size=(1, 1), stride=(1, 1), bias=False)
            (1): BatchNorm2d(960, eps=0.001, momentum=0.01, affine=True, track_running_stats=True)
            (2): SiLU(inplace=True)
          )
          (1): ConvNormActivation(
            (0): Conv2d(960, 960, kernel_size=(3, 3), stride=(1, 1), padding=(1, 1), groups=960, bias=False)
            (1): BatchNorm2d(960, eps=0.001, momentum=0.01, affine=True, track_running_stats=True)
            (2): SiLU(inplace=True)
          )
          (2): SqueezeExcitation(
            (avgpool): AdaptiveAvgPool2d(output_size=1)
            (fc1): Conv2d(960, 40, kernel_size=(1, 1), stride=(1, 1))
            (fc2): Conv2d(40, 960, kernel_size=(1, 1), stride=(1, 1))
            (activation): SiLU(inplace=True)
            (scale_activation): Sigmoid()
          )
          (3): ConvNormActivation(
            (0): Conv2d(960, 160, kernel_size=(1, 1), stride=(1, 1), bias=False)
            (1): BatchNorm2d(160, eps=0.001, momentum=0.01, affine=True, track_running_stats=True)
          )
        )
        (stochastic_depth): StochasticDepth(p=0.09818181818181819, mode=row)
      )
    )
    (5): Sequential(
      (0): MBConv(
        (block): Sequential(
          (0): ConvNormActivation(
            (0): Conv2d(160, 960, kernel_size=(1, 1), stride=(1, 1), bias=False)
            (1): BatchNorm2d(960, eps=0.001, momentum=0.01, affine=True, track_running_stats=True)
            (2): SiLU(inplace=True)
          )
          (1): ConvNormActivation(
            (0): Conv2d(960, 960, kernel_size=(5, 5), stride=(1, 1), padding=(2, 2), groups=960, bias=False)
            (1): BatchNorm2d(960, eps=0.001, momentum=0.01, affine=True, track_running_stats=True)
            (2): SiLU(inplace=True)
          )
          (2): SqueezeExcitation(
            (avgpool): AdaptiveAvgPool2d(output_size=1)
            (fc1): Conv2d(960, 40, kernel_size=(1, 1), stride=(1, 1))
            (fc2): Conv2d(40, 960, kernel_size=(1, 1), stride=(1, 1))
            (activation): SiLU(inplace=True)
            (scale_activation): Sigmoid()
          )
          (3): ConvNormActivation(
            (0): Conv2d(960, 224, kernel_size=(1, 1), stride=(1, 1), bias=False)
            (1): BatchNorm2d(224, eps=0.001, momentum=0.01, affine=True, track_running_stats=True)
          )
        )
        (stochastic_depth): StochasticDepth(p=0.10181818181818182, mode=row)
      )
      (1): MBConv(
        (block): Sequential(
          (0): ConvNormActivation(
            (0): Conv2d(224, 1344, kernel_size=(1, 1), stride=(1, 1), bias=False)
            (1): BatchNorm2d(1344, eps=0.001, momentum=0.01, affine=True, track_running_stats=True)
            (2): SiLU(inplace=True)
          )
          (1): ConvNormActivation(
            (0): Conv2d(1344, 1344, kernel_size=(5, 5), stride=(1, 1), padding=(2, 2), groups=1344, bias=False)
            (1): BatchNorm2d(1344, eps=0.001, momentum=0.01, affine=True, track_running_stats=True)
            (2): SiLU(inplace=True)
          )
          (2): SqueezeExcitation(
            (avgpool): AdaptiveAvgPool2d(output_size=1)
            (fc1): Conv2d(1344, 56, kernel_size=(1, 1), stride=(1, 1))
            (fc2): Conv2d(56, 1344, kernel_size=(1, 1), stride=(1, 1))
            (activation): SiLU(inplace=True)
            (scale_activation): Sigmoid()
          )
          (3): ConvNormActivation(
            (0): Conv2d(1344, 224, kernel_size=(1, 1), stride=(1, 1), bias=False)
            (1): BatchNorm2d(224, eps=0.001, momentum=0.01, affine=True, track_running_stats=True)
          )
        )
        (stochastic_depth): StochasticDepth(p=0.10545454545454547, mode=row)
      )
      (2): MBConv(
        (block): Sequential(
          (0): ConvNormActivation(
            (0): Conv2d(224, 1344, kernel_size=(1, 1), stride=(1, 1), bias=False)
            (1): BatchNorm2d(1344, eps=0.001, momentum=0.01, affine=True, track_running_stats=True)
            (2): SiLU(inplace=True)
          )
          (1): ConvNormActivation(
            (0): Conv2d(1344, 1344, kernel_size=(5, 5), stride=(1, 1), padding=(2, 2), groups=1344, bias=False)
            (1): BatchNorm2d(1344, eps=0.001, momentum=0.01, affine=True, track_running_stats=True)
            (2): SiLU(inplace=True)
          )
          (2): SqueezeExcitation(
            (avgpool): AdaptiveAvgPool2d(output_size=1)
            (fc1): Conv2d(1344, 56, kernel_size=(1, 1), stride=(1, 1))
            (fc2): Conv2d(56, 1344, kernel_size=(1, 1), stride=(1, 1))
            (activation): SiLU(inplace=True)
            (scale_activation): Sigmoid()
          )
          (3): ConvNormActivation(
            (0): Conv2d(1344, 224, kernel_size=(1, 1), stride=(1, 1), bias=False)
            (1): BatchNorm2d(224, eps=0.001, momentum=0.01, affine=True, track_running_stats=True)
          )
        )
        (stochastic_depth): StochasticDepth(p=0.10909090909090909, mode=row)
      )
      (3): MBConv(
        (block): Sequential(
          (0): ConvNormActivation(
            (0): Conv2d(224, 1344, kernel_size=(1, 1), stride=(1, 1), bias=False)
            (1): BatchNorm2d(1344, eps=0.001, momentum=0.01, affine=True, track_running_stats=True)
            (2): SiLU(inplace=True)
          )
          (1): ConvNormActivation(
            (0): Conv2d(1344, 1344, kernel_size=(5, 5), stride=(1, 1), padding=(2, 2), groups=1344, bias=False)
            (1): BatchNorm2d(1344, eps=0.001, momentum=0.01, affine=True, track_running_stats=True)
            (2): SiLU(inplace=True)
          )
          (2): SqueezeExcitation(
            (avgpool): AdaptiveAvgPool2d(output_size=1)
            (fc1): Conv2d(1344, 56, kernel_size=(1, 1), stride=(1, 1))
            (fc2): Conv2d(56, 1344, kernel_size=(1, 1), stride=(1, 1))
            (activation): SiLU(inplace=True)
            (scale_activation): Sigmoid()
          )
          (3): ConvNormActivation(
            (0): Conv2d(1344, 224, kernel_size=(1, 1), stride=(1, 1), bias=False)
            (1): BatchNorm2d(224, eps=0.001, momentum=0.01, affine=True, track_running_stats=True)
          )
        )
        (stochastic_depth): StochasticDepth(p=0.11272727272727273, mode=row)
      )
      (4): MBConv(
        (block): Sequential(
          (0): ConvNormActivation(
            (0): Conv2d(224, 1344, kernel_size=(1, 1), stride=(1, 1), bias=False)
            (1): BatchNorm2d(1344, eps=0.001, momentum=0.01, affine=True, track_running_stats=True)
            (2): SiLU(inplace=True)
          )
          (1): ConvNormActivation(
            (0): Conv2d(1344, 1344, kernel_size=(5, 5), stride=(1, 1), padding=(2, 2), groups=1344, bias=False)
            (1): BatchNorm2d(1344, eps=0.001, momentum=0.01, affine=True, track_running_stats=True)
            (2): SiLU(inplace=True)
          )
          (2): SqueezeExcitation(
            (avgpool): AdaptiveAvgPool2d(output_size=1)
            (fc1): Conv2d(1344, 56, kernel_size=(1, 1), stride=(1, 1))
            (fc2): Conv2d(56, 1344, kernel_size=(1, 1), stride=(1, 1))
            (activation): SiLU(inplace=True)
            (scale_activation): Sigmoid()
          )
          (3): ConvNormActivation(
            (0): Conv2d(1344, 224, kernel_size=(1, 1), stride=(1, 1), bias=False)
            (1): BatchNorm2d(224, eps=0.001, momentum=0.01, affine=True, track_running_stats=True)
          )
        )
        (stochastic_depth): StochasticDepth(p=0.11636363636363636, mode=row)
      )
      (5): MBConv(
        (block): Sequential(
          (0): ConvNormActivation(
            (0): Conv2d(224, 1344, kernel_size=(1, 1), stride=(1, 1), bias=False)
            (1): BatchNorm2d(1344, eps=0.001, momentum=0.01, affine=True, track_running_stats=True)
            (2): SiLU(inplace=True)
          )
          (1): ConvNormActivation(
            (0): Conv2d(1344, 1344, kernel_size=(5, 5), stride=(1, 1), padding=(2, 2), groups=1344, bias=False)
            (1): BatchNorm2d(1344, eps=0.001, momentum=0.01, affine=True, track_running_stats=True)
            (2): SiLU(inplace=True)
          )
          (2): SqueezeExcitation(
            (avgpool): AdaptiveAvgPool2d(output_size=1)
            (fc1): Conv2d(1344, 56, kernel_size=(1, 1), stride=(1, 1))
            (fc2): Conv2d(56, 1344, kernel_size=(1, 1), stride=(1, 1))
            (activation): SiLU(inplace=True)
            (scale_activation): Sigmoid()
          )
          (3): ConvNormActivation(
            (0): Conv2d(1344, 224, kernel_size=(1, 1), stride=(1, 1), bias=False)
            (1): BatchNorm2d(224, eps=0.001, momentum=0.01, affine=True, track_running_stats=True)
          )
        )
        (stochastic_depth): StochasticDepth(p=0.12000000000000001, mode=row)
      )
      (6): MBConv(
        (block): Sequential(
          (0): ConvNormActivation(
            (0): Conv2d(224, 1344, kernel_size=(1, 1), stride=(1, 1), bias=False)
            (1): BatchNorm2d(1344, eps=0.001, momentum=0.01, affine=True, track_running_stats=True)
            (2): SiLU(inplace=True)
          )
          (1): ConvNormActivation(
            (0): Conv2d(1344, 1344, kernel_size=(5, 5), stride=(1, 1), padding=(2, 2), groups=1344, bias=False)
            (1): BatchNorm2d(1344, eps=0.001, momentum=0.01, affine=True, track_running_stats=True)
            (2): SiLU(inplace=True)
          )
          (2): SqueezeExcitation(
            (avgpool): AdaptiveAvgPool2d(output_size=1)
            (fc1): Conv2d(1344, 56, kernel_size=(1, 1), stride=(1, 1))
            (fc2): Conv2d(56, 1344, kernel_size=(1, 1), stride=(1, 1))
            (activation): SiLU(inplace=True)
            (scale_activation): Sigmoid()
          )
          (3): ConvNormActivation(
            (0): Conv2d(1344, 224, kernel_size=(1, 1), stride=(1, 1), bias=False)
            (1): BatchNorm2d(224, eps=0.001, momentum=0.01, affine=True, track_running_stats=True)
          )
        )
        (stochastic_depth): StochasticDepth(p=0.12363636363636366, mode=row)
      )
      (7): MBConv(
        (block): Sequential(
          (0): ConvNormActivation(
            (0): Conv2d(224, 1344, kernel_size=(1, 1), stride=(1, 1), bias=False)
            (1): BatchNorm2d(1344, eps=0.001, momentum=0.01, affine=True, track_running_stats=True)
            (2): SiLU(inplace=True)
          )
          (1): ConvNormActivation(
            (0): Conv2d(1344, 1344, kernel_size=(5, 5), stride=(1, 1), padding=(2, 2), groups=1344, bias=False)
            (1): BatchNorm2d(1344, eps=0.001, momentum=0.01, affine=True, track_running_stats=True)
            (2): SiLU(inplace=True)
          )
          (2): SqueezeExcitation(
            (avgpool): AdaptiveAvgPool2d(output_size=1)
            (fc1): Conv2d(1344, 56, kernel_size=(1, 1), stride=(1, 1))
            (fc2): Conv2d(56, 1344, kernel_size=(1, 1), stride=(1, 1))
            (activation): SiLU(inplace=True)
            (scale_activation): Sigmoid()
          )
          (3): ConvNormActivation(
            (0): Conv2d(1344, 224, kernel_size=(1, 1), stride=(1, 1), bias=False)
            (1): BatchNorm2d(224, eps=0.001, momentum=0.01, affine=True, track_running_stats=True)
          )
        )
        (stochastic_depth): StochasticDepth(p=0.12727272727272726, mode=row)
      )
      (8): MBConv(
        (block): Sequential(
          (0): ConvNormActivation(
            (0): Conv2d(224, 1344, kernel_size=(1, 1), stride=(1, 1), bias=False)
            (1): BatchNorm2d(1344, eps=0.001, momentum=0.01, affine=True, track_running_stats=True)
            (2): SiLU(inplace=True)
          )
          (1): ConvNormActivation(
            (0): Conv2d(1344, 1344, kernel_size=(5, 5), stride=(1, 1), padding=(2, 2), groups=1344, bias=False)
            (1): BatchNorm2d(1344, eps=0.001, momentum=0.01, affine=True, track_running_stats=True)
            (2): SiLU(inplace=True)
          )
          (2): SqueezeExcitation(
            (avgpool): AdaptiveAvgPool2d(output_size=1)
            (fc1): Conv2d(1344, 56, kernel_size=(1, 1), stride=(1, 1))
            (fc2): Conv2d(56, 1344, kernel_size=(1, 1), stride=(1, 1))
            (activation): SiLU(inplace=True)
            (scale_activation): Sigmoid()
          )
          (3): ConvNormActivation(
            (0): Conv2d(1344, 224, kernel_size=(1, 1), stride=(1, 1), bias=False)
            (1): BatchNorm2d(224, eps=0.001, momentum=0.01, affine=True, track_running_stats=True)
          )
        )
        (stochastic_depth): StochasticDepth(p=0.13090909090909092, mode=row)
      )
      (9): MBConv(
        (block): Sequential(
          (0): ConvNormActivation(
            (0): Conv2d(224, 1344, kernel_size=(1, 1), stride=(1, 1), bias=False)
            (1): BatchNorm2d(1344, eps=0.001, momentum=0.01, affine=True, track_running_stats=True)
            (2): SiLU(inplace=True)
          )
          (1): ConvNormActivation(
            (0): Conv2d(1344, 1344, kernel_size=(5, 5), stride=(1, 1), padding=(2, 2), groups=1344, bias=False)
            (1): BatchNorm2d(1344, eps=0.001, momentum=0.01, affine=True, track_running_stats=True)
            (2): SiLU(inplace=True)
          )
          (2): SqueezeExcitation(
            (avgpool): AdaptiveAvgPool2d(output_size=1)
            (fc1): Conv2d(1344, 56, kernel_size=(1, 1), stride=(1, 1))
            (fc2): Conv2d(56, 1344, kernel_size=(1, 1), stride=(1, 1))
            (activation): SiLU(inplace=True)
            (scale_activation): Sigmoid()
          )
          (3): ConvNormActivation(
            (0): Conv2d(1344, 224, kernel_size=(1, 1), stride=(1, 1), bias=False)
            (1): BatchNorm2d(224, eps=0.001, momentum=0.01, affine=True, track_running_stats=True)
          )
        )
        (stochastic_depth): StochasticDepth(p=0.13454545454545455, mode=row)
      )
    )
    (6): Sequential(
      (0): MBConv(
        (block): Sequential(
          (0): ConvNormActivation(
            (0): Conv2d(224, 1344, kernel_size=(1, 1), stride=(1, 1), bias=False)
            (1): BatchNorm2d(1344, eps=0.001, momentum=0.01, affine=True, track_running_stats=True)
            (2): SiLU(inplace=True)
          )
          (1): ConvNormActivation(
            (0): Conv2d(1344, 1344, kernel_size=(5, 5), stride=(2, 2), padding=(2, 2), groups=1344, bias=False)
            (1): BatchNorm2d(1344, eps=0.001, momentum=0.01, affine=True, track_running_stats=True)
            (2): SiLU(inplace=True)
          )
          (2): SqueezeExcitation(
            (avgpool): AdaptiveAvgPool2d(output_size=1)
            (fc1): Conv2d(1344, 56, kernel_size=(1, 1), stride=(1, 1))
            (fc2): Conv2d(56, 1344, kernel_size=(1, 1), stride=(1, 1))
            (activation): SiLU(inplace=True)
            (scale_activation): Sigmoid()
          )
          (3): ConvNormActivation(
            (0): Conv2d(1344, 384, kernel_size=(1, 1), stride=(1, 1), bias=False)
            (1): BatchNorm2d(384, eps=0.001, momentum=0.01, affine=True, track_running_stats=True)
          )
        )
        (stochastic_depth): StochasticDepth(p=0.13818181818181818, mode=row)
      )
      (1): MBConv(
        (block): Sequential(
          (0): ConvNormActivation(
            (0): Conv2d(384, 2304, kernel_size=(1, 1), stride=(1, 1), bias=False)
            (1): BatchNorm2d(2304, eps=0.001, momentum=0.01, affine=True, track_running_stats=True)
            (2): SiLU(inplace=True)
          )
          (1): ConvNormActivation(
            (0): Conv2d(2304, 2304, kernel_size=(5, 5), stride=(1, 1), padding=(2, 2), groups=2304, bias=False)
            (1): BatchNorm2d(2304, eps=0.001, momentum=0.01, affine=True, track_running_stats=True)
            (2): SiLU(inplace=True)
          )
          (2): SqueezeExcitation(
            (avgpool): AdaptiveAvgPool2d(output_size=1)
            (fc1): Conv2d(2304, 96, kernel_size=(1, 1), stride=(1, 1))
            (fc2): Conv2d(96, 2304, kernel_size=(1, 1), stride=(1, 1))
            (activation): SiLU(inplace=True)
            (scale_activation): Sigmoid()
          )
          (3): ConvNormActivation(
            (0): Conv2d(2304, 384, kernel_size=(1, 1), stride=(1, 1), bias=False)
            (1): BatchNorm2d(384, eps=0.001, momentum=0.01, affine=True, track_running_stats=True)
          )
        )
        (stochastic_depth): StochasticDepth(p=0.14181818181818184, mode=row)
      )
      (2): MBConv(
        (block): Sequential(
          (0): ConvNormActivation(
            (0): Conv2d(384, 2304, kernel_size=(1, 1), stride=(1, 1), bias=False)
            (1): BatchNorm2d(2304, eps=0.001, momentum=0.01, affine=True, track_running_stats=True)
            (2): SiLU(inplace=True)
          )
          (1): ConvNormActivation(
            (0): Conv2d(2304, 2304, kernel_size=(5, 5), stride=(1, 1), padding=(2, 2), groups=2304, bias=False)
            (1): BatchNorm2d(2304, eps=0.001, momentum=0.01, affine=True, track_running_stats=True)
            (2): SiLU(inplace=True)
          )
          (2): SqueezeExcitation(
            (avgpool): AdaptiveAvgPool2d(output_size=1)
            (fc1): Conv2d(2304, 96, kernel_size=(1, 1), stride=(1, 1))
            (fc2): Conv2d(96, 2304, kernel_size=(1, 1), stride=(1, 1))
            (activation): SiLU(inplace=True)
            (scale_activation): Sigmoid()
          )
          (3): ConvNormActivation(
            (0): Conv2d(2304, 384, kernel_size=(1, 1), stride=(1, 1), bias=False)
            (1): BatchNorm2d(384, eps=0.001, momentum=0.01, affine=True, track_running_stats=True)
          )
        )
        (stochastic_depth): StochasticDepth(p=0.14545454545454545, mode=row)
      )
      (3): MBConv(
        (block): Sequential(
          (0): ConvNormActivation(
            (0): Conv2d(384, 2304, kernel_size=(1, 1), stride=(1, 1), bias=False)
            (1): BatchNorm2d(2304, eps=0.001, momentum=0.01, affine=True, track_running_stats=True)
            (2): SiLU(inplace=True)
          )
          (1): ConvNormActivation(
            (0): Conv2d(2304, 2304, kernel_size=(5, 5), stride=(1, 1), padding=(2, 2), groups=2304, bias=False)
            (1): BatchNorm2d(2304, eps=0.001, momentum=0.01, affine=True, track_running_stats=True)
            (2): SiLU(inplace=True)
          )
          (2): SqueezeExcitation(
            (avgpool): AdaptiveAvgPool2d(output_size=1)
            (fc1): Conv2d(2304, 96, kernel_size=(1, 1), stride=(1, 1))
            (fc2): Conv2d(96, 2304, kernel_size=(1, 1), stride=(1, 1))
            (activation): SiLU(inplace=True)
            (scale_activation): Sigmoid()
          )
          (3): ConvNormActivation(
            (0): Conv2d(2304, 384, kernel_size=(1, 1), stride=(1, 1), bias=False)
            (1): BatchNorm2d(384, eps=0.001, momentum=0.01, affine=True, track_running_stats=True)
          )
        )
        (stochastic_depth): StochasticDepth(p=0.1490909090909091, mode=row)
      )
      (4): MBConv(
        (block): Sequential(
          (0): ConvNormActivation(
            (0): Conv2d(384, 2304, kernel_size=(1, 1), stride=(1, 1), bias=False)
            (1): BatchNorm2d(2304, eps=0.001, momentum=0.01, affine=True, track_running_stats=True)
            (2): SiLU(inplace=True)
          )
          (1): ConvNormActivation(
            (0): Conv2d(2304, 2304, kernel_size=(5, 5), stride=(1, 1), padding=(2, 2), groups=2304, bias=False)
            (1): BatchNorm2d(2304, eps=0.001, momentum=0.01, affine=True, track_running_stats=True)
            (2): SiLU(inplace=True)
          )
          (2): SqueezeExcitation(
            (avgpool): AdaptiveAvgPool2d(output_size=1)
            (fc1): Conv2d(2304, 96, kernel_size=(1, 1), stride=(1, 1))
            (fc2): Conv2d(96, 2304, kernel_size=(1, 1), stride=(1, 1))
            (activation): SiLU(inplace=True)
            (scale_activation): Sigmoid()
          )
          (3): ConvNormActivation(
            (0): Conv2d(2304, 384, kernel_size=(1, 1), stride=(1, 1), bias=False)
            (1): BatchNorm2d(384, eps=0.001, momentum=0.01, affine=True, track_running_stats=True)
          )
        )
        (stochastic_depth): StochasticDepth(p=0.15272727272727274, mode=row)
      )
      (5): MBConv(
        (block): Sequential(
          (0): ConvNormActivation(
            (0): Conv2d(384, 2304, kernel_size=(1, 1), stride=(1, 1), bias=False)
            (1): BatchNorm2d(2304, eps=0.001, momentum=0.01, affine=True, track_running_stats=True)
            (2): SiLU(inplace=True)
          )
          (1): ConvNormActivation(
            (0): Conv2d(2304, 2304, kernel_size=(5, 5), stride=(1, 1), padding=(2, 2), groups=2304, bias=False)
            (1): BatchNorm2d(2304, eps=0.001, momentum=0.01, affine=True, track_running_stats=True)
            (2): SiLU(inplace=True)
          )
          (2): SqueezeExcitation(
            (avgpool): AdaptiveAvgPool2d(output_size=1)
            (fc1): Conv2d(2304, 96, kernel_size=(1, 1), stride=(1, 1))
            (fc2): Conv2d(96, 2304, kernel_size=(1, 1), stride=(1, 1))
            (activation): SiLU(inplace=True)
            (scale_activation): Sigmoid()
          )
          (3): ConvNormActivation(
            (0): Conv2d(2304, 384, kernel_size=(1, 1), stride=(1, 1), bias=False)
            (1): BatchNorm2d(384, eps=0.001, momentum=0.01, affine=True, track_running_stats=True)
          )
        )
        (stochastic_depth): StochasticDepth(p=0.15636363636363634, mode=row)
      )
      (6): MBConv(
        (block): Sequential(
          (0): ConvNormActivation(
            (0): Conv2d(384, 2304, kernel_size=(1, 1), stride=(1, 1), bias=False)
            (1): BatchNorm2d(2304, eps=0.001, momentum=0.01, affine=True, track_running_stats=True)
            (2): SiLU(inplace=True)
          )
          (1): ConvNormActivation(
            (0): Conv2d(2304, 2304, kernel_size=(5, 5), stride=(1, 1), padding=(2, 2), groups=2304, bias=False)
            (1): BatchNorm2d(2304, eps=0.001, momentum=0.01, affine=True, track_running_stats=True)
            (2): SiLU(inplace=True)
          )
          (2): SqueezeExcitation(
            (avgpool): AdaptiveAvgPool2d(output_size=1)
            (fc1): Conv2d(2304, 96, kernel_size=(1, 1), stride=(1, 1))
            (fc2): Conv2d(96, 2304, kernel_size=(1, 1), stride=(1, 1))
            (activation): SiLU(inplace=True)
            (scale_activation): Sigmoid()
          )
          (3): ConvNormActivation(
            (0): Conv2d(2304, 384, kernel_size=(1, 1), stride=(1, 1), bias=False)
            (1): BatchNorm2d(384, eps=0.001, momentum=0.01, affine=True, track_running_stats=True)
          )
        )
        (stochastic_depth): StochasticDepth(p=0.16, mode=row)
      )
      (7): MBConv(
        (block): Sequential(
          (0): ConvNormActivation(
            (0): Conv2d(384, 2304, kernel_size=(1, 1), stride=(1, 1), bias=False)
            (1): BatchNorm2d(2304, eps=0.001, momentum=0.01, affine=True, track_running_stats=True)
            (2): SiLU(inplace=True)
          )
          (1): ConvNormActivation(
            (0): Conv2d(2304, 2304, kernel_size=(5, 5), stride=(1, 1), padding=(2, 2), groups=2304, bias=False)
            (1): BatchNorm2d(2304, eps=0.001, momentum=0.01, affine=True, track_running_stats=True)
            (2): SiLU(inplace=True)
          )
          (2): SqueezeExcitation(
            (avgpool): AdaptiveAvgPool2d(output_size=1)
            (fc1): Conv2d(2304, 96, kernel_size=(1, 1), stride=(1, 1))
            (fc2): Conv2d(96, 2304, kernel_size=(1, 1), stride=(1, 1))
            (activation): SiLU(inplace=True)
            (scale_activation): Sigmoid()
          )
          (3): ConvNormActivation(
            (0): Conv2d(2304, 384, kernel_size=(1, 1), stride=(1, 1), bias=False)
            (1): BatchNorm2d(384, eps=0.001, momentum=0.01, affine=True, track_running_stats=True)
          )
        )
        (stochastic_depth): StochasticDepth(p=0.16363636363636364, mode=row)
      )
      (8): MBConv(
        (block): Sequential(
          (0): ConvNormActivation(
            (0): Conv2d(384, 2304, kernel_size=(1, 1), stride=(1, 1), bias=False)
            (1): BatchNorm2d(2304, eps=0.001, momentum=0.01, affine=True, track_running_stats=True)
            (2): SiLU(inplace=True)
          )
          (1): ConvNormActivation(
            (0): Conv2d(2304, 2304, kernel_size=(5, 5), stride=(1, 1), padding=(2, 2), groups=2304, bias=False)
            (1): BatchNorm2d(2304, eps=0.001, momentum=0.01, affine=True, track_running_stats=True)
            (2): SiLU(inplace=True)
          )
          (2): SqueezeExcitation(
            (avgpool): AdaptiveAvgPool2d(output_size=1)
            (fc1): Conv2d(2304, 96, kernel_size=(1, 1), stride=(1, 1))
            (fc2): Conv2d(96, 2304, kernel_size=(1, 1), stride=(1, 1))
            (activation): SiLU(inplace=True)
            (scale_activation): Sigmoid()
          )
          (3): ConvNormActivation(
            (0): Conv2d(2304, 384, kernel_size=(1, 1), stride=(1, 1), bias=False)
            (1): BatchNorm2d(384, eps=0.001, momentum=0.01, affine=True, track_running_stats=True)
          )
        )
        (stochastic_depth): StochasticDepth(p=0.1672727272727273, mode=row)
      )
      (9): MBConv(
        (block): Sequential(
          (0): ConvNormActivation(
            (0): Conv2d(384, 2304, kernel_size=(1, 1), stride=(1, 1), bias=False)
            (1): BatchNorm2d(2304, eps=0.001, momentum=0.01, affine=True, track_running_stats=True)
            (2): SiLU(inplace=True)
          )
          (1): ConvNormActivation(
            (0): Conv2d(2304, 2304, kernel_size=(5, 5), stride=(1, 1), padding=(2, 2), groups=2304, bias=False)
            (1): BatchNorm2d(2304, eps=0.001, momentum=0.01, affine=True, track_running_stats=True)
            (2): SiLU(inplace=True)
          )
          (2): SqueezeExcitation(
            (avgpool): AdaptiveAvgPool2d(output_size=1)
            (fc1): Conv2d(2304, 96, kernel_size=(1, 1), stride=(1, 1))
            (fc2): Conv2d(96, 2304, kernel_size=(1, 1), stride=(1, 1))
            (activation): SiLU(inplace=True)
            (scale_activation): Sigmoid()
          )
          (3): ConvNormActivation(
            (0): Conv2d(2304, 384, kernel_size=(1, 1), stride=(1, 1), bias=False)
            (1): BatchNorm2d(384, eps=0.001, momentum=0.01, affine=True, track_running_stats=True)
          )
        )
        (stochastic_depth): StochasticDepth(p=0.17090909090909093, mode=row)
      )
      (10): MBConv(
        (block): Sequential(
          (0): ConvNormActivation(
            (0): Conv2d(384, 2304, kernel_size=(1, 1), stride=(1, 1), bias=False)
            (1): BatchNorm2d(2304, eps=0.001, momentum=0.01, affine=True, track_running_stats=True)
            (2): SiLU(inplace=True)
          )
          (1): ConvNormActivation(
            (0): Conv2d(2304, 2304, kernel_size=(5, 5), stride=(1, 1), padding=(2, 2), groups=2304, bias=False)
            (1): BatchNorm2d(2304, eps=0.001, momentum=0.01, affine=True, track_running_stats=True)
            (2): SiLU(inplace=True)
          )
          (2): SqueezeExcitation(
            (avgpool): AdaptiveAvgPool2d(output_size=1)
            (fc1): Conv2d(2304, 96, kernel_size=(1, 1), stride=(1, 1))
            (fc2): Conv2d(96, 2304, kernel_size=(1, 1), stride=(1, 1))
            (activation): SiLU(inplace=True)
            (scale_activation): Sigmoid()
          )
          (3): ConvNormActivation(
            (0): Conv2d(2304, 384, kernel_size=(1, 1), stride=(1, 1), bias=False)
            (1): BatchNorm2d(384, eps=0.001, momentum=0.01, affine=True, track_running_stats=True)
          )
        )
        (stochastic_depth): StochasticDepth(p=0.17454545454545456, mode=row)
      )
      (11): MBConv(
        (block): Sequential(
          (0): ConvNormActivation(
            (0): Conv2d(384, 2304, kernel_size=(1, 1), stride=(1, 1), bias=False)
            (1): BatchNorm2d(2304, eps=0.001, momentum=0.01, affine=True, track_running_stats=True)
            (2): SiLU(inplace=True)
          )
          (1): ConvNormActivation(
            (0): Conv2d(2304, 2304, kernel_size=(5, 5), stride=(1, 1), padding=(2, 2), groups=2304, bias=False)
            (1): BatchNorm2d(2304, eps=0.001, momentum=0.01, affine=True, track_running_stats=True)
            (2): SiLU(inplace=True)
          )
          (2): SqueezeExcitation(
            (avgpool): AdaptiveAvgPool2d(output_size=1)
            (fc1): Conv2d(2304, 96, kernel_size=(1, 1), stride=(1, 1))
            (fc2): Conv2d(96, 2304, kernel_size=(1, 1), stride=(1, 1))
            (activation): SiLU(inplace=True)
            (scale_activation): Sigmoid()
          )
          (3): ConvNormActivation(
            (0): Conv2d(2304, 384, kernel_size=(1, 1), stride=(1, 1), bias=False)
            (1): BatchNorm2d(384, eps=0.001, momentum=0.01, affine=True, track_running_stats=True)
          )
        )
        (stochastic_depth): StochasticDepth(p=0.1781818181818182, mode=row)
      )
      (12): MBConv(
        (block): Sequential(
          (0): ConvNormActivation(
            (0): Conv2d(384, 2304, kernel_size=(1, 1), stride=(1, 1), bias=False)
            (1): BatchNorm2d(2304, eps=0.001, momentum=0.01, affine=True, track_running_stats=True)
            (2): SiLU(inplace=True)
          )
          (1): ConvNormActivation(
            (0): Conv2d(2304, 2304, kernel_size=(5, 5), stride=(1, 1), padding=(2, 2), groups=2304, bias=False)
            (1): BatchNorm2d(2304, eps=0.001, momentum=0.01, affine=True, track_running_stats=True)
            (2): SiLU(inplace=True)
          )
          (2): SqueezeExcitation(
            (avgpool): AdaptiveAvgPool2d(output_size=1)
            (fc1): Conv2d(2304, 96, kernel_size=(1, 1), stride=(1, 1))
            (fc2): Conv2d(96, 2304, kernel_size=(1, 1), stride=(1, 1))
            (activation): SiLU(inplace=True)
            (scale_activation): Sigmoid()
          )
          (3): ConvNormActivation(
            (0): Conv2d(2304, 384, kernel_size=(1, 1), stride=(1, 1), bias=False)
            (1): BatchNorm2d(384, eps=0.001, momentum=0.01, affine=True, track_running_stats=True)
          )
        )
        (stochastic_depth): StochasticDepth(p=0.18181818181818182, mode=row)
      )
    )
    (7): Sequential(
      (0): MBConv(
        (block): Sequential(
          (0): ConvNormActivation(
            (0): Conv2d(384, 2304, kernel_size=(1, 1), stride=(1, 1), bias=False)
            (1): BatchNorm2d(2304, eps=0.001, momentum=0.01, affine=True, track_running_stats=True)
            (2): SiLU(inplace=True)
          )
          (1): ConvNormActivation(
            (0): Conv2d(2304, 2304, kernel_size=(3, 3), stride=(1, 1), padding=(1, 1), groups=2304, bias=False)
            (1): BatchNorm2d(2304, eps=0.001, momentum=0.01, affine=True, track_running_stats=True)
            (2): SiLU(inplace=True)
          )
          (2): SqueezeExcitation(
            (avgpool): AdaptiveAvgPool2d(output_size=1)
            (fc1): Conv2d(2304, 96, kernel_size=(1, 1), stride=(1, 1))
            (fc2): Conv2d(96, 2304, kernel_size=(1, 1), stride=(1, 1))
            (activation): SiLU(inplace=True)
            (scale_activation): Sigmoid()
          )
          (3): ConvNormActivation(
            (0): Conv2d(2304, 640, kernel_size=(1, 1), stride=(1, 1), bias=False)
            (1): BatchNorm2d(640, eps=0.001, momentum=0.01, affine=True, track_running_stats=True)
          )
        )
        (stochastic_depth): StochasticDepth(p=0.18545454545454548, mode=row)
      )
      (1): MBConv(
        (block): Sequential(
          (0): ConvNormActivation(
            (0): Conv2d(640, 3840, kernel_size=(1, 1), stride=(1, 1), bias=False)
            (1): BatchNorm2d(3840, eps=0.001, momentum=0.01, affine=True, track_running_stats=True)
            (2): SiLU(inplace=True)
          )
          (1): ConvNormActivation(
            (0): Conv2d(3840, 3840, kernel_size=(3, 3), stride=(1, 1), padding=(1, 1), groups=3840, bias=False)
            (1): BatchNorm2d(3840, eps=0.001, momentum=0.01, affine=True, track_running_stats=True)
            (2): SiLU(inplace=True)
          )
          (2): SqueezeExcitation(
            (avgpool): AdaptiveAvgPool2d(output_size=1)
            (fc1): Conv2d(3840, 160, kernel_size=(1, 1), stride=(1, 1))
            (fc2): Conv2d(160, 3840, kernel_size=(1, 1), stride=(1, 1))
            (activation): SiLU(inplace=True)
            (scale_activation): Sigmoid()
          )
          (3): ConvNormActivation(
            (0): Conv2d(3840, 640, kernel_size=(1, 1), stride=(1, 1), bias=False)
            (1): BatchNorm2d(640, eps=0.001, momentum=0.01, affine=True, track_running_stats=True)
          )
        )
        (stochastic_depth): StochasticDepth(p=0.1890909090909091, mode=row)
      )
      (2): MBConv(
        (block): Sequential(
          (0): ConvNormActivation(
            (0): Conv2d(640, 3840, kernel_size=(1, 1), stride=(1, 1), bias=False)
            (1): BatchNorm2d(3840, eps=0.001, momentum=0.01, affine=True, track_running_stats=True)
            (2): SiLU(inplace=True)
          )
          (1): ConvNormActivation(
            (0): Conv2d(3840, 3840, kernel_size=(3, 3), stride=(1, 1), padding=(1, 1), groups=3840, bias=False)
            (1): BatchNorm2d(3840, eps=0.001, momentum=0.01, affine=True, track_running_stats=True)
            (2): SiLU(inplace=True)
          )
          (2): SqueezeExcitation(
            (avgpool): AdaptiveAvgPool2d(output_size=1)
            (fc1): Conv2d(3840, 160, kernel_size=(1, 1), stride=(1, 1))
            (fc2): Conv2d(160, 3840, kernel_size=(1, 1), stride=(1, 1))
            (activation): SiLU(inplace=True)
            (scale_activation): Sigmoid()
          )
          (3): ConvNormActivation(
            (0): Conv2d(3840, 640, kernel_size=(1, 1), stride=(1, 1), bias=False)
            (1): BatchNorm2d(640, eps=0.001, momentum=0.01, affine=True, track_running_stats=True)
          )
        )
        (stochastic_depth): StochasticDepth(p=0.19272727272727275, mode=row)
      )
      (3): MBConv(
        (block): Sequential(
          (0): ConvNormActivation(
            (0): Conv2d(640, 3840, kernel_size=(1, 1), stride=(1, 1), bias=False)
            (1): BatchNorm2d(3840, eps=0.001, momentum=0.01, affine=True, track_running_stats=True)
            (2): SiLU(inplace=True)
          )
          (1): ConvNormActivation(
            (0): Conv2d(3840, 3840, kernel_size=(3, 3), stride=(1, 1), padding=(1, 1), groups=3840, bias=False)
            (1): BatchNorm2d(3840, eps=0.001, momentum=0.01, affine=True, track_running_stats=True)
            (2): SiLU(inplace=True)
          )
          (2): SqueezeExcitation(
            (avgpool): AdaptiveAvgPool2d(output_size=1)
            (fc1): Conv2d(3840, 160, kernel_size=(1, 1), stride=(1, 1))
            (fc2): Conv2d(160, 3840, kernel_size=(1, 1), stride=(1, 1))
            (activation): SiLU(inplace=True)
            (scale_activation): Sigmoid()
          )
          (3): ConvNormActivation(
            (0): Conv2d(3840, 640, kernel_size=(1, 1), stride=(1, 1), bias=False)
            (1): BatchNorm2d(640, eps=0.001, momentum=0.01, affine=True, track_running_stats=True)
          )
        )
        (stochastic_depth): StochasticDepth(p=0.19636363636363638, mode=row)
      )
    )
    (8): ConvNormActivation(
      (0): Conv2d(640, 2560, kernel_size=(1, 1), stride=(1, 1), bias=False)
      (1): BatchNorm2d(2560, eps=0.001, momentum=0.01, affine=True, track_running_stats=True)
      (2): SiLU(inplace=True)
    )
  )
  (avgpool): AdaptiveAvgPool2d(output_size=1)
  (classifier): Sequential(
    (0): Dropout(p=0.5, inplace=True)
    (1): Linear(in_features=2560, out_features=1000, bias=True)
  )
)
